{"format": "graph-model", "generatedBy": "2.9.0", "convertedBy": "TensorFlow.js Converter v3.19.0", "signature": {"inputs": {"input_4": {"name": "input_4:0", "dtype": "DT_FLOAT", "tensorShape": {"dim": [{"size": "-1"}, {"size": "320"}, {"size": "320"}, {"size": "3"}]}}}, "outputs": {"activation_3": {"name": "Identity:0", "dtype": "DT_FLOAT", "tensorShape": {"dim": [{"size": "-1"}, {"size": "25600"}, {"size": "2"}]}}}}, "modelTopology": {"node": [{"name": "StatefulPartitionedCall/model_15/conv1_pad/Pad/paddings", "op": "Const", "attr": {"value": {"tensor": {"dtype": "DT_INT32", "tensorShape": {"dim": [{"size": "4"}, {"size": "2"}]}}}, "dtype": {"type": "DT_INT32"}}}, {"name": "StatefulPartitionedCall/model_15/conv_pad_1/Pad/paddings", "op": "Const", "attr": {"value": {"tensor": {"dtype": "DT_INT32", "tensorShape": {"dim": [{"size": "4"}, {"size": "2"}]}}}, "dtype": {"type": "DT_INT32"}}}, {"name": "StatefulPartitionedCall/model_15/conv_pad_2/Pad/paddings", "op": "Const", "attr": {"value": {"tensor": {"dtype": "DT_INT32", "tensorShape": {"dim": [{"size": "4"}, {"size": "2"}]}}}, "dtype": {"type": "DT_INT32"}}}, {"name": "StatefulPartitionedCall/model_15/conv_pad_3/Pad/paddings", "op": "Const", "attr": {"value": {"tensor": {"dtype": "DT_INT32", "tensorShape": {"dim": [{"size": "4"}, {"size": "2"}]}}}, "dtype": {"type": "DT_INT32"}}}, {"name": "StatefulPartitionedCall/model_15/conv_pad_4/Pad/paddings", "op": "Const", "attr": {"value": {"tensor": {"dtype": "DT_INT32", "tensorShape": {"dim": [{"size": "4"}, {"size": "2"}]}}}, "dtype": {"type": "DT_INT32"}}}, {"name": "StatefulPartitionedCall/model_15/conv_pad_5/Pad/paddings", "op": "Const", "attr": {"value": {"tensor": {"dtype": "DT_INT32", "tensorShape": {"dim": [{"size": "4"}, {"size": "2"}]}}}, "dtype": {"type": "DT_INT32"}}}, {"name": "StatefulPartitionedCall/model_15/conv_pad_6/Pad/paddings", "op": "Const", "attr": {"dtype": {"type": "DT_INT32"}, "value": {"tensor": {"dtype": "DT_INT32", "tensorShape": {"dim": [{"size": "4"}, {"size": "2"}]}}}}}, {"name": "StatefulPartitionedCall/model_15/conv_pad_7/Pad/paddings", "op": "Const", "attr": {"value": {"tensor": {"dtype": "DT_INT32", "tensorShape": {"dim": [{"size": "4"}, {"size": "2"}]}}}, "dtype": {"type": "DT_INT32"}}}, {"name": "StatefulPartitionedCall/model_15/conv_pad_8/Pad/paddings", "op": "Const", "attr": {"dtype": {"type": "DT_INT32"}, "value": {"tensor": {"dtype": "DT_INT32", "tensorShape": {"dim": [{"size": "4"}, {"size": "2"}]}}}}}, {"name": "StatefulPartitionedCall/model_15/conv_pad_9/Pad/paddings", "op": "Const", "attr": {"value": {"tensor": {"dtype": "DT_INT32", "tensorShape": {"dim": [{"size": "4"}, {"size": "2"}]}}}, "dtype": {"type": "DT_INT32"}}}, {"name": "StatefulPartitionedCall/model_15/conv_pad_10/Pad/paddings", "op": "Const", "attr": {"dtype": {"type": "DT_INT32"}, "value": {"tensor": {"dtype": "DT_INT32", "tensorShape": {"dim": [{"size": "4"}, {"size": "2"}]}}}}}, {"name": "StatefulPartitionedCall/model_15/conv_pad_11/Pad/paddings", "op": "Const", "attr": {"value": {"tensor": {"dtype": "DT_INT32", "tensorShape": {"dim": [{"size": "4"}, {"size": "2"}]}}}, "dtype": {"type": "DT_INT32"}}}, {"name": "StatefulPartitionedCall/model_15/zero_padding2d_8/Pad/paddings", "op": "Const", "attr": {"value": {"tensor": {"dtype": "DT_INT32", "tensorShape": {"dim": [{"size": "4"}, {"size": "2"}]}}}, "dtype": {"type": "DT_INT32"}}}, {"name": "StatefulPartitionedCall/model_15/up_sampling2d_6/mul", "op": "Const", "attr": {"value": {"tensor": {"dtype": "DT_INT32", "tensorShape": {"dim": [{"size": "2"}]}}}, "dtype": {"type": "DT_INT32"}}}, {"name": "StatefulPartitionedCall/model_15/zero_padding2d_9/Pad/paddings", "op": "Const", "attr": {"value": {"tensor": {"dtype": "DT_INT32", "tensorShape": {"dim": [{"size": "4"}, {"size": "2"}]}}}, "dtype": {"type": "DT_INT32"}}}, {"name": "StatefulPartitionedCall/model_15/up_sampling2d_7/mul", "op": "Const", "attr": {"value": {"tensor": {"dtype": "DT_INT32", "tensorShape": {"dim": [{"size": "2"}]}}}, "dtype": {"type": "DT_INT32"}}}, {"name": "StatefulPartitionedCall/model_15/zero_padding2d_10/Pad/paddings", "op": "Const", "attr": {"dtype": {"type": "DT_INT32"}, "value": {"tensor": {"dtype": "DT_INT32", "tensorShape": {"dim": [{"size": "4"}, {"size": "2"}]}}}}}, {"name": "StatefulPartitionedCall/model_15/up_sampling2d_8/mul", "op": "Const", "attr": {"value": {"tensor": {"dtype": "DT_INT32", "tensorShape": {"dim": [{"size": "2"}]}}}, "dtype": {"type": "DT_INT32"}}}, {"name": "StatefulPartitionedCall/model_15/zero_padding2d_11/Pad/paddings", "op": "Const", "attr": {"dtype": {"type": "DT_INT32"}, "value": {"tensor": {"dtype": "DT_INT32", "tensorShape": {"dim": [{"size": "4"}, {"size": "2"}]}}}}}, {"name": "StatefulPartitionedCall/model_15/conv2d_13/Conv2D/ReadVariableOp", "op": "Const", "attr": {"dtype": {"type": "DT_FLOAT"}, "value": {"tensor": {"dtype": "DT_FLOAT", "tensorShape": {"dim": [{"size": "3"}, {"size": "3"}, {"size": "64"}, {"size": "2"}]}}}}}, {"name": "StatefulPartitionedCall/model_15/conv2d_13/BiasAdd/ReadVariableOp", "op": "Const", "attr": {"dtype": {"type": "DT_FLOAT"}, "value": {"tensor": {"dtype": "DT_FLOAT", "tensorShape": {"dim": [{"size": "2"}]}}}}}, {"name": "StatefulPartitionedCall/model_15/reshape_3/strided_slice/stack", "op": "Const", "attr": {"value": {"tensor": {"dtype": "DT_INT32", "tensorShape": {"dim": [{"size": "1"}]}}}, "dtype": {"type": "DT_INT32"}}}, {"name": "StatefulPartitionedCall/model_15/reshape_3/strided_slice/stack_1", "op": "Const", "attr": {"value": {"tensor": {"dtype": "DT_INT32", "tensorShape": {"dim": [{"size": "1"}]}}}, "dtype": {"type": "DT_INT32"}}}, {"name": "StatefulPartitionedCall/model_15/reshape_3/strided_slice/stack_2", "op": "Const", "attr": {"dtype": {"type": "DT_INT32"}, "value": {"tensor": {"dtype": "DT_INT32", "tensorShape": {"dim": [{"size": "1"}]}}}}}, {"name": "StatefulPartitionedCall/model_15/reshape_3/Reshape/shape/1", "op": "Const", "attr": {"value": {"tensor": {"dtype": "DT_INT32", "tensorShape": {}}}, "dtype": {"type": "DT_INT32"}}}, {"name": "StatefulPartitionedCall/model_15/reshape_3/Reshape/shape/2", "op": "Const", "attr": {"dtype": {"type": "DT_INT32"}, "value": {"tensor": {"dtype": "DT_INT32", "tensorShape": {}}}}}, {"name": "input_4", "op": "Placeholder", "attr": {"shape": {"shape": {"dim": [{"size": "-1"}, {"size": "320"}, {"size": "320"}, {"size": "3"}]}}, "dtype": {"type": "DT_FLOAT"}}}, {"name": "StatefulPartitionedCall/model_15/conv1/Conv2D_weights", "op": "Const", "attr": {"dtype": {"type": "DT_FLOAT"}, "value": {"tensor": {"dtype": "DT_FLOAT", "tensorShape": {"dim": [{"size": "3"}, {"size": "3"}, {"size": "3"}, {"size": "32"}]}}}}}, {"name": "StatefulPartitionedCall/model_15/conv1/Conv2D_bn_offset", "op": "Const", "attr": {"value": {"tensor": {"dtype": "DT_FLOAT", "tensorShape": {"dim": [{"size": "32"}]}}}, "dtype": {"type": "DT_FLOAT"}}}, {"name": "StatefulPartitionedCall/model_15/conv2d_10/Conv2D_bn_offset", "op": "Const", "attr": {"value": {"tensor": {"dtype": "DT_FLOAT", "tensorShape": {"dim": [{"size": "512"}]}}}, "dtype": {"type": "DT_FLOAT"}}}, {"name": "StatefulPartitionedCall/model_15/conv_dw_1/depthwise_weights", "op": "Const", "attr": {"dtype": {"type": "DT_FLOAT"}, "value": {"tensor": {"dtype": "DT_FLOAT", "tensorShape": {"dim": [{"size": "3"}, {"size": "3"}, {"size": "32"}, {"size": "1"}]}}}}}, {"name": "StatefulPartitionedCall/model_15/conv_dw_1/depthwise_bn_offset", "op": "Const", "attr": {"dtype": {"type": "DT_FLOAT"}, "value": {"tensor": {"dtype": "DT_FLOAT", "tensorShape": {"dim": [{"size": "32"}]}}}}}, {"name": "StatefulPartitionedCall/model_15/conv_pw_1/Conv2D_weights", "op": "Const", "attr": {"value": {"tensor": {"dtype": "DT_FLOAT", "tensorShape": {"dim": [{"size": "1"}, {"size": "1"}, {"size": "32"}, {"size": "64"}]}}}, "dtype": {"type": "DT_FLOAT"}}}, {"name": "StatefulPartitionedCall/model_15/conv_pw_1/Conv2D_bn_offset", "op": "Const", "attr": {"value": {"tensor": {"dtype": "DT_FLOAT", "tensorShape": {"dim": [{"size": "64"}]}}}, "dtype": {"type": "DT_FLOAT"}}}, {"name": "StatefulPartitionedCall/model_15/conv_dw_2/depthwise_weights", "op": "Const", "attr": {"value": {"tensor": {"dtype": "DT_FLOAT", "tensorShape": {"dim": [{"size": "3"}, {"size": "3"}, {"size": "64"}, {"size": "1"}]}}}, "dtype": {"type": "DT_FLOAT"}}}, {"name": "StatefulPartitionedCall/model_15/conv_dw_2/depthwise_bn_offset", "op": "Const", "attr": {"value": {"tensor": {"dtype": "DT_FLOAT", "tensorShape": {"dim": [{"size": "64"}]}}}, "dtype": {"type": "DT_FLOAT"}}}, {"name": "StatefulPartitionedCall/model_15/conv_pw_2/Conv2D_weights", "op": "Const", "attr": {"dtype": {"type": "DT_FLOAT"}, "value": {"tensor": {"dtype": "DT_FLOAT", "tensorShape": {"dim": [{"size": "1"}, {"size": "1"}, {"size": "64"}, {"size": "128"}]}}}}}, {"name": "StatefulPartitionedCall/model_15/conv_pw_2/Conv2D_bn_offset", "op": "Const", "attr": {"value": {"tensor": {"dtype": "DT_FLOAT", "tensorShape": {"dim": [{"size": "128"}]}}}, "dtype": {"type": "DT_FLOAT"}}}, {"name": "StatefulPartitionedCall/model_15/conv2d_11/Conv2D_weights", "op": "Const", "attr": {"dtype": {"type": "DT_FLOAT"}, "value": {"tensor": {"dtype": "DT_FLOAT", "tensorShape": {"dim": [{"size": "3"}, {"size": "3"}, {"size": "512"}, {"size": "256"}]}}}}}, {"name": "StatefulPartitionedCall/model_15/conv_dw_3/depthwise_weights", "op": "Const", "attr": {"value": {"tensor": {"dtype": "DT_FLOAT", "tensorShape": {"dim": [{"size": "3"}, {"size": "3"}, {"size": "128"}, {"size": "1"}]}}}, "dtype": {"type": "DT_FLOAT"}}}, {"name": "StatefulPartitionedCall/model_15/conv_dw_3/depthwise_bn_offset", "op": "Const", "attr": {"value": {"tensor": {"dtype": "DT_FLOAT", "tensorShape": {"dim": [{"size": "128"}]}}}, "dtype": {"type": "DT_FLOAT"}}}, {"name": "StatefulPartitionedCall/model_15/conv_pw_3/Conv2D_weights", "op": "Const", "attr": {"value": {"tensor": {"dtype": "DT_FLOAT", "tensorShape": {"dim": [{"size": "1"}, {"size": "1"}, {"size": "128"}, {"size": "128"}]}}}, "dtype": {"type": "DT_FLOAT"}}}, {"name": "StatefulPartitionedCall/model_15/conv_pw_3/Conv2D_bn_offset", "op": "Const", "attr": {"value": {"tensor": {"dtype": "DT_FLOAT", "tensorShape": {"dim": [{"size": "128"}]}}}, "dtype": {"type": "DT_FLOAT"}}}, {"name": "StatefulPartitionedCall/model_15/conv2d_11/Conv2D_bn_offset", "op": "Const", "attr": {"dtype": {"type": "DT_FLOAT"}, "value": {"tensor": {"dtype": "DT_FLOAT", "tensorShape": {"dim": [{"size": "256"}]}}}}}, {"name": "StatefulPartitionedCall/model_15/conv_dw_4/depthwise_weights", "op": "Const", "attr": {"value": {"tensor": {"dtype": "DT_FLOAT", "tensorShape": {"dim": [{"size": "3"}, {"size": "3"}, {"size": "128"}, {"size": "1"}]}}}, "dtype": {"type": "DT_FLOAT"}}}, {"name": "StatefulPartitionedCall/model_15/conv_dw_4/depthwise_bn_offset", "op": "Const", "attr": {"value": {"tensor": {"dtype": "DT_FLOAT", "tensorShape": {"dim": [{"size": "128"}]}}}, "dtype": {"type": "DT_FLOAT"}}}, {"name": "StatefulPartitionedCall/model_15/conv_pw_4/Conv2D_weights", "op": "Const", "attr": {"dtype": {"type": "DT_FLOAT"}, "value": {"tensor": {"dtype": "DT_FLOAT", "tensorShape": {"dim": [{"size": "1"}, {"size": "1"}, {"size": "128"}, {"size": "256"}]}}}}}, {"name": "StatefulPartitionedCall/model_15/conv_pw_4/Conv2D_bn_offset", "op": "Const", "attr": {"dtype": {"type": "DT_FLOAT"}, "value": {"tensor": {"dtype": "DT_FLOAT", "tensorShape": {"dim": [{"size": "256"}]}}}}}, {"name": "StatefulPartitionedCall/model_15/conv_dw_5/depthwise_weights", "op": "Const", "attr": {"value": {"tensor": {"dtype": "DT_FLOAT", "tensorShape": {"dim": [{"size": "3"}, {"size": "3"}, {"size": "256"}, {"size": "1"}]}}}, "dtype": {"type": "DT_FLOAT"}}}, {"name": "StatefulPartitionedCall/model_15/conv_dw_5/depthwise_bn_offset", "op": "Const", "attr": {"value": {"tensor": {"dtype": "DT_FLOAT", "tensorShape": {"dim": [{"size": "256"}]}}}, "dtype": {"type": "DT_FLOAT"}}}, {"name": "StatefulPartitionedCall/model_15/conv_pw_5/Conv2D_weights", "op": "Const", "attr": {"dtype": {"type": "DT_FLOAT"}, "value": {"tensor": {"dtype": "DT_FLOAT", "tensorShape": {"dim": [{"size": "1"}, {"size": "1"}, {"size": "256"}, {"size": "256"}]}}}}}, {"name": "StatefulPartitionedCall/model_15/conv_pw_5/Conv2D_bn_offset", "op": "Const", "attr": {"dtype": {"type": "DT_FLOAT"}, "value": {"tensor": {"dtype": "DT_FLOAT", "tensorShape": {"dim": [{"size": "256"}]}}}}}, {"name": "StatefulPartitionedCall/model_15/conv2d_12/Conv2D_weights", "op": "Const", "attr": {"value": {"tensor": {"dtype": "DT_FLOAT", "tensorShape": {"dim": [{"size": "3"}, {"size": "3"}, {"size": "256"}, {"size": "128"}]}}}, "dtype": {"type": "DT_FLOAT"}}}, {"name": "StatefulPartitionedCall/model_15/conv_dw_6/depthwise_weights", "op": "Const", "attr": {"dtype": {"type": "DT_FLOAT"}, "value": {"tensor": {"dtype": "DT_FLOAT", "tensorShape": {"dim": [{"size": "3"}, {"size": "3"}, {"size": "256"}, {"size": "1"}]}}}}}, {"name": "StatefulPartitionedCall/model_15/conv_dw_6/depthwise_bn_offset", "op": "Const", "attr": {"value": {"tensor": {"dtype": "DT_FLOAT", "tensorShape": {"dim": [{"size": "256"}]}}}, "dtype": {"type": "DT_FLOAT"}}}, {"name": "StatefulPartitionedCall/model_15/conv_pw_6/Conv2D_weights", "op": "Const", "attr": {"value": {"tensor": {"dtype": "DT_FLOAT", "tensorShape": {"dim": [{"size": "1"}, {"size": "1"}, {"size": "256"}, {"size": "512"}]}}}, "dtype": {"type": "DT_FLOAT"}}}, {"name": "StatefulPartitionedCall/model_15/conv_pw_6/Conv2D_bn_offset", "op": "Const", "attr": {"value": {"tensor": {"dtype": "DT_FLOAT", "tensorShape": {"dim": [{"size": "512"}]}}}, "dtype": {"type": "DT_FLOAT"}}}, {"name": "StatefulPartitionedCall/model_15/conv2d_12/Conv2D_bn_offset", "op": "Const", "attr": {"value": {"tensor": {"dtype": "DT_FLOAT", "tensorShape": {"dim": [{"size": "128"}]}}}, "dtype": {"type": "DT_FLOAT"}}}, {"name": "StatefulPartitionedCall/model_15/conv_dw_7/depthwise_weights", "op": "Const", "attr": {"value": {"tensor": {"dtype": "DT_FLOAT", "tensorShape": {"dim": [{"size": "3"}, {"size": "3"}, {"size": "512"}, {"size": "1"}]}}}, "dtype": {"type": "DT_FLOAT"}}}, {"name": "StatefulPartitionedCall/model_15/conv_dw_7/depthwise_bn_offset", "op": "Const", "attr": {"dtype": {"type": "DT_FLOAT"}, "value": {"tensor": {"dtype": "DT_FLOAT", "tensorShape": {"dim": [{"size": "512"}]}}}}}, {"name": "StatefulPartitionedCall/model_15/conv_pw_7/Conv2D_weights", "op": "Const", "attr": {"dtype": {"type": "DT_FLOAT"}, "value": {"tensor": {"dtype": "DT_FLOAT", "tensorShape": {"dim": [{"size": "1"}, {"size": "1"}, {"size": "512"}, {"size": "512"}]}}}}}, {"name": "StatefulPartitionedCall/model_15/conv_pw_7/Conv2D_bn_offset", "op": "Const", "attr": {"value": {"tensor": {"dtype": "DT_FLOAT", "tensorShape": {"dim": [{"size": "512"}]}}}, "dtype": {"type": "DT_FLOAT"}}}, {"name": "StatefulPartitionedCall/model_15/conv_dw_8/depthwise_weights", "op": "Const", "attr": {"value": {"tensor": {"dtype": "DT_FLOAT", "tensorShape": {"dim": [{"size": "3"}, {"size": "3"}, {"size": "512"}, {"size": "1"}]}}}, "dtype": {"type": "DT_FLOAT"}}}, {"name": "StatefulPartitionedCall/model_15/conv_dw_8/depthwise_bn_offset", "op": "Const", "attr": {"dtype": {"type": "DT_FLOAT"}, "value": {"tensor": {"dtype": "DT_FLOAT", "tensorShape": {"dim": [{"size": "512"}]}}}}}, {"name": "StatefulPartitionedCall/model_15/conv_pw_8/Conv2D_weights", "op": "Const", "attr": {"value": {"tensor": {"dtype": "DT_FLOAT", "tensorShape": {"dim": [{"size": "1"}, {"size": "1"}, {"size": "512"}, {"size": "512"}]}}}, "dtype": {"type": "DT_FLOAT"}}}, {"name": "StatefulPartitionedCall/model_15/conv_pw_8/Conv2D_bn_offset", "op": "Const", "attr": {"value": {"tensor": {"dtype": "DT_FLOAT", "tensorShape": {"dim": [{"size": "512"}]}}}, "dtype": {"type": "DT_FLOAT"}}}, {"name": "StatefulPartitionedCall/model_15/seg_feats/Conv2D_weights", "op": "Const", "attr": {"value": {"tensor": {"dtype": "DT_FLOAT", "tensorShape": {"dim": [{"size": "3"}, {"size": "3"}, {"size": "128"}, {"size": "64"}]}}}, "dtype": {"type": "DT_FLOAT"}}}, {"name": "StatefulPartitionedCall/model_15/conv_dw_9/depthwise_weights", "op": "Const", "attr": {"value": {"tensor": {"dtype": "DT_FLOAT", "tensorShape": {"dim": [{"size": "3"}, {"size": "3"}, {"size": "512"}, {"size": "1"}]}}}, "dtype": {"type": "DT_FLOAT"}}}, {"name": "StatefulPartitionedCall/model_15/conv_dw_9/depthwise_bn_offset", "op": "Const", "attr": {"dtype": {"type": "DT_FLOAT"}, "value": {"tensor": {"dtype": "DT_FLOAT", "tensorShape": {"dim": [{"size": "512"}]}}}}}, {"name": "StatefulPartitionedCall/model_15/conv_pw_9/Conv2D_weights", "op": "Const", "attr": {"dtype": {"type": "DT_FLOAT"}, "value": {"tensor": {"dtype": "DT_FLOAT", "tensorShape": {"dim": [{"size": "1"}, {"size": "1"}, {"size": "512"}, {"size": "512"}]}}}}}, {"name": "StatefulPartitionedCall/model_15/conv_pw_9/Conv2D_bn_offset", "op": "Const", "attr": {"value": {"tensor": {"dtype": "DT_FLOAT", "tensorShape": {"dim": [{"size": "512"}]}}}, "dtype": {"type": "DT_FLOAT"}}}, {"name": "StatefulPartitionedCall/model_15/seg_feats/Conv2D_bn_offset", "op": "Const", "attr": {"value": {"tensor": {"dtype": "DT_FLOAT", "tensorShape": {"dim": [{"size": "64"}]}}}, "dtype": {"type": "DT_FLOAT"}}}, {"name": "StatefulPartitionedCall/model_15/conv_dw_10/depthwise_weights", "op": "Const", "attr": {"dtype": {"type": "DT_FLOAT"}, "value": {"tensor": {"dtype": "DT_FLOAT", "tensorShape": {"dim": [{"size": "3"}, {"size": "3"}, {"size": "512"}, {"size": "1"}]}}}}}, {"name": "StatefulPartitionedCall/model_15/conv_dw_10/depthwise_bn_offset", "op": "Const", "attr": {"value": {"tensor": {"dtype": "DT_FLOAT", "tensorShape": {"dim": [{"size": "512"}]}}}, "dtype": {"type": "DT_FLOAT"}}}, {"name": "StatefulPartitionedCall/model_15/conv_pw_10/Conv2D_weights", "op": "Const", "attr": {"dtype": {"type": "DT_FLOAT"}, "value": {"tensor": {"dtype": "DT_FLOAT", "tensorShape": {"dim": [{"size": "1"}, {"size": "1"}, {"size": "512"}, {"size": "512"}]}}}}}, {"name": "StatefulPartitionedCall/model_15/conv_pw_10/Conv2D_bn_offset", "op": "Const", "attr": {"dtype": {"type": "DT_FLOAT"}, "value": {"tensor": {"dtype": "DT_FLOAT", "tensorShape": {"dim": [{"size": "512"}]}}}}}, {"name": "StatefulPartitionedCall/model_15/conv_dw_11/depthwise_weights", "op": "Const", "attr": {"dtype": {"type": "DT_FLOAT"}, "value": {"tensor": {"dtype": "DT_FLOAT", "tensorShape": {"dim": [{"size": "3"}, {"size": "3"}, {"size": "512"}, {"size": "1"}]}}}}}, {"name": "StatefulPartitionedCall/model_15/conv_dw_11/depthwise_bn_offset", "op": "Const", "attr": {"dtype": {"type": "DT_FLOAT"}, "value": {"tensor": {"dtype": "DT_FLOAT", "tensorShape": {"dim": [{"size": "512"}]}}}}}, {"name": "StatefulPartitionedCall/model_15/conv_pw_11/Conv2D_weights", "op": "Const", "attr": {"value": {"tensor": {"dtype": "DT_FLOAT", "tensorShape": {"dim": [{"size": "1"}, {"size": "1"}, {"size": "512"}, {"size": "512"}]}}}, "dtype": {"type": "DT_FLOAT"}}}, {"name": "StatefulPartitionedCall/model_15/conv_pw_11/Conv2D_bn_offset", "op": "Const", "attr": {"value": {"tensor": {"dtype": "DT_FLOAT", "tensorShape": {"dim": [{"size": "512"}]}}}, "dtype": {"type": "DT_FLOAT"}}}, {"name": "StatefulPartitionedCall/model_15/conv2d_10/Conv2D_weights", "op": "Const", "attr": {"dtype": {"type": "DT_FLOAT"}, "value": {"tensor": {"dtype": "DT_FLOAT", "tensorShape": {"dim": [{"size": "3"}, {"size": "3"}, {"size": "512"}, {"size": "512"}]}}}}}, {"name": "StatefulPartitionedCall/model_15/conv1_pad/Pad", "op": "Pad", "input": ["input_4", "StatefulPartitionedCall/model_15/conv1_pad/Pad/paddings"], "attr": {"Tpaddings": {"type": "DT_INT32"}, "T": {"type": "DT_FLOAT"}}}, {"name": "StatefulPartitionedCall/model_15/conv1_relu/Relu6", "op": "_FusedConv2D", "input": ["StatefulPartitionedCall/model_15/conv1_pad/Pad", "StatefulPartitionedCall/model_15/conv1/Conv2D_weights", "StatefulPartitionedCall/model_15/conv1/Conv2D_bn_offset"], "device": "/device:CPU:0", "attr": {"num_args": {"i": "1"}, "data_format": {"s": "TkhXQw=="}, "fused_ops": {"list": {"s": ["Qmlhc0FkZA==", "UmVsdTY="]}}, "use_cudnn_on_gpu": {"b": true}, "strides": {"list": {"i": ["1", "2", "2", "1"]}}, "epsilon": {"f": 0.0}, "padding": {"s": "VkFMSUQ="}, "T": {"type": "DT_FLOAT"}, "dilations": {"list": {"i": ["1", "1", "1", "1"]}}, "explicit_paddings": {"list": {}}}}, {"name": "StatefulPartitionedCall/model_15/conv_pad_1/Pad", "op": "Pad", "input": ["StatefulPartitionedCall/model_15/conv1_relu/Relu6", "StatefulPartitionedCall/model_15/conv_pad_1/Pad/paddings"], "attr": {"Tpaddings": {"type": "DT_INT32"}, "T": {"type": "DT_FLOAT"}}}, {"name": "StatefulPartitionedCall/model_15/conv_dw_1/depthwise", "op": "FusedDepthwiseConv2dNative", "input": ["StatefulPartitionedCall/model_15/conv_pad_1/Pad", "StatefulPartitionedCall/model_15/conv_dw_1/depthwise_weights", "StatefulPartitionedCall/model_15/conv_dw_1/depthwise_bn_offset"], "attr": {"dilations": {"list": {"i": ["1", "1", "1", "1"]}}, "data_format": {"s": "TkhXQw=="}, "strides": {"list": {"i": ["1", "1", "1", "1"]}}, "explicit_paddings": {"list": {}}, "padding": {"s": "VkFMSUQ="}, "T": {"type": "DT_FLOAT"}, "fused_ops": {"list": {"s": ["Qmlhc0FkZA==", "UmVsdTY="]}}, "num_args": {"i": "1"}}}, {"name": "StatefulPartitionedCall/model_15/conv_pw_1_relu/Relu6", "op": "_FusedConv2D", "input": ["StatefulPartitionedCall/model_15/conv_dw_1/depthwise", "StatefulPartitionedCall/model_15/conv_pw_1/Conv2D_weights", "StatefulPartitionedCall/model_15/conv_pw_1/Conv2D_bn_offset"], "device": "/device:CPU:0", "attr": {"epsilon": {"f": 0.0}, "fused_ops": {"list": {"s": ["Qmlhc0FkZA==", "UmVsdTY="]}}, "strides": {"list": {"i": ["1", "1", "1", "1"]}}, "explicit_paddings": {"list": {}}, "num_args": {"i": "1"}, "padding": {"s": "U0FNRQ=="}, "use_cudnn_on_gpu": {"b": true}, "dilations": {"list": {"i": ["1", "1", "1", "1"]}}, "T": {"type": "DT_FLOAT"}, "data_format": {"s": "TkhXQw=="}}}, {"name": "StatefulPartitionedCall/model_15/conv_pad_2/Pad", "op": "Pad", "input": ["StatefulPartitionedCall/model_15/conv_pw_1_relu/Relu6", "StatefulPartitionedCall/model_15/conv_pad_2/Pad/paddings"], "attr": {"T": {"type": "DT_FLOAT"}, "Tpaddings": {"type": "DT_INT32"}}}, {"name": "StatefulPartitionedCall/model_15/conv_dw_2/depthwise", "op": "FusedDepthwiseConv2dNative", "input": ["StatefulPartitionedCall/model_15/conv_pad_2/Pad", "StatefulPartitionedCall/model_15/conv_dw_2/depthwise_weights", "StatefulPartitionedCall/model_15/conv_dw_2/depthwise_bn_offset"], "attr": {"T": {"type": "DT_FLOAT"}, "explicit_paddings": {"list": {}}, "dilations": {"list": {"i": ["1", "1", "1", "1"]}}, "data_format": {"s": "TkhXQw=="}, "num_args": {"i": "1"}, "strides": {"list": {"i": ["1", "2", "2", "1"]}}, "fused_ops": {"list": {"s": ["Qmlhc0FkZA==", "UmVsdTY="]}}, "padding": {"s": "VkFMSUQ="}}}, {"name": "StatefulPartitionedCall/model_15/conv_pw_2_relu/Relu6", "op": "_FusedConv2D", "input": ["StatefulPartitionedCall/model_15/conv_dw_2/depthwise", "StatefulPartitionedCall/model_15/conv_pw_2/Conv2D_weights", "StatefulPartitionedCall/model_15/conv_pw_2/Conv2D_bn_offset"], "device": "/device:CPU:0", "attr": {"explicit_paddings": {"list": {}}, "fused_ops": {"list": {"s": ["Qmlhc0FkZA==", "UmVsdTY="]}}, "dilations": {"list": {"i": ["1", "1", "1", "1"]}}, "data_format": {"s": "TkhXQw=="}, "padding": {"s": "U0FNRQ=="}, "num_args": {"i": "1"}, "strides": {"list": {"i": ["1", "1", "1", "1"]}}, "epsilon": {"f": 0.0}, "use_cudnn_on_gpu": {"b": true}, "T": {"type": "DT_FLOAT"}}}, {"name": "StatefulPartitionedCall/model_15/conv_pad_3/Pad", "op": "Pad", "input": ["StatefulPartitionedCall/model_15/conv_pw_2_relu/Relu6", "StatefulPartitionedCall/model_15/conv_pad_3/Pad/paddings"], "attr": {"Tpaddings": {"type": "DT_INT32"}, "T": {"type": "DT_FLOAT"}}}, {"name": "StatefulPartitionedCall/model_15/conv_dw_3/depthwise", "op": "FusedDepthwiseConv2dNative", "input": ["StatefulPartitionedCall/model_15/conv_pad_3/Pad", "StatefulPartitionedCall/model_15/conv_dw_3/depthwise_weights", "StatefulPartitionedCall/model_15/conv_dw_3/depthwise_bn_offset"], "attr": {"data_format": {"s": "TkhXQw=="}, "strides": {"list": {"i": ["1", "1", "1", "1"]}}, "padding": {"s": "VkFMSUQ="}, "num_args": {"i": "1"}, "T": {"type": "DT_FLOAT"}, "explicit_paddings": {"list": {}}, "fused_ops": {"list": {"s": ["Qmlhc0FkZA==", "UmVsdTY="]}}, "dilations": {"list": {"i": ["1", "1", "1", "1"]}}}}, {"name": "StatefulPartitionedCall/model_15/conv_pw_3_relu/Relu6", "op": "_FusedConv2D", "input": ["StatefulPartitionedCall/model_15/conv_dw_3/depthwise", "StatefulPartitionedCall/model_15/conv_pw_3/Conv2D_weights", "StatefulPartitionedCall/model_15/conv_pw_3/Conv2D_bn_offset"], "device": "/device:CPU:0", "attr": {"T": {"type": "DT_FLOAT"}, "explicit_paddings": {"list": {}}, "fused_ops": {"list": {"s": ["Qmlhc0FkZA==", "UmVsdTY="]}}, "epsilon": {"f": 0.0}, "dilations": {"list": {"i": ["1", "1", "1", "1"]}}, "strides": {"list": {"i": ["1", "1", "1", "1"]}}, "num_args": {"i": "1"}, "use_cudnn_on_gpu": {"b": true}, "padding": {"s": "U0FNRQ=="}, "data_format": {"s": "TkhXQw=="}}}, {"name": "StatefulPartitionedCall/model_15/conv_pad_4/Pad", "op": "Pad", "input": ["StatefulPartitionedCall/model_15/conv_pw_3_relu/Relu6", "StatefulPartitionedCall/model_15/conv_pad_4/Pad/paddings"], "attr": {"Tpaddings": {"type": "DT_INT32"}, "T": {"type": "DT_FLOAT"}}}, {"name": "StatefulPartitionedCall/model_15/conv_dw_4/depthwise", "op": "FusedDepthwiseConv2dNative", "input": ["StatefulPartitionedCall/model_15/conv_pad_4/Pad", "StatefulPartitionedCall/model_15/conv_dw_4/depthwise_weights", "StatefulPartitionedCall/model_15/conv_dw_4/depthwise_bn_offset"], "attr": {"dilations": {"list": {"i": ["1", "1", "1", "1"]}}, "padding": {"s": "VkFMSUQ="}, "fused_ops": {"list": {"s": ["Qmlhc0FkZA==", "UmVsdTY="]}}, "num_args": {"i": "1"}, "T": {"type": "DT_FLOAT"}, "data_format": {"s": "TkhXQw=="}, "strides": {"list": {"i": ["1", "2", "2", "1"]}}, "explicit_paddings": {"list": {}}}}, {"name": "StatefulPartitionedCall/model_15/conv_pw_4_relu/Relu6", "op": "_FusedConv2D", "input": ["StatefulPartitionedCall/model_15/conv_dw_4/depthwise", "StatefulPartitionedCall/model_15/conv_pw_4/Conv2D_weights", "StatefulPartitionedCall/model_15/conv_pw_4/Conv2D_bn_offset"], "device": "/device:CPU:0", "attr": {"dilations": {"list": {"i": ["1", "1", "1", "1"]}}, "num_args": {"i": "1"}, "fused_ops": {"list": {"s": ["Qmlhc0FkZA==", "UmVsdTY="]}}, "padding": {"s": "U0FNRQ=="}, "use_cudnn_on_gpu": {"b": true}, "T": {"type": "DT_FLOAT"}, "data_format": {"s": "TkhXQw=="}, "strides": {"list": {"i": ["1", "1", "1", "1"]}}, "explicit_paddings": {"list": {}}, "epsilon": {"f": 0.0}}}, {"name": "StatefulPartitionedCall/model_15/conv_pad_5/Pad", "op": "Pad", "input": ["StatefulPartitionedCall/model_15/conv_pw_4_relu/Relu6", "StatefulPartitionedCall/model_15/conv_pad_5/Pad/paddings"], "attr": {"Tpaddings": {"type": "DT_INT32"}, "T": {"type": "DT_FLOAT"}}}, {"name": "StatefulPartitionedCall/model_15/conv_dw_5/depthwise", "op": "FusedDepthwiseConv2dNative", "input": ["StatefulPartitionedCall/model_15/conv_pad_5/Pad", "StatefulPartitionedCall/model_15/conv_dw_5/depthwise_weights", "StatefulPartitionedCall/model_15/conv_dw_5/depthwise_bn_offset"], "attr": {"data_format": {"s": "TkhXQw=="}, "explicit_paddings": {"list": {}}, "strides": {"list": {"i": ["1", "1", "1", "1"]}}, "padding": {"s": "VkFMSUQ="}, "fused_ops": {"list": {"s": ["Qmlhc0FkZA==", "UmVsdTY="]}}, "dilations": {"list": {"i": ["1", "1", "1", "1"]}}, "T": {"type": "DT_FLOAT"}, "num_args": {"i": "1"}}}, {"name": "StatefulPartitionedCall/model_15/conv_pw_5_relu/Relu6", "op": "_FusedConv2D", "input": ["StatefulPartitionedCall/model_15/conv_dw_5/depthwise", "StatefulPartitionedCall/model_15/conv_pw_5/Conv2D_weights", "StatefulPartitionedCall/model_15/conv_pw_5/Conv2D_bn_offset"], "device": "/device:CPU:0", "attr": {"epsilon": {"f": 0.0}, "dilations": {"list": {"i": ["1", "1", "1", "1"]}}, "T": {"type": "DT_FLOAT"}, "use_cudnn_on_gpu": {"b": true}, "data_format": {"s": "TkhXQw=="}, "num_args": {"i": "1"}, "padding": {"s": "U0FNRQ=="}, "explicit_paddings": {"list": {}}, "fused_ops": {"list": {"s": ["Qmlhc0FkZA==", "UmVsdTY="]}}, "strides": {"list": {"i": ["1", "1", "1", "1"]}}}}, {"name": "StatefulPartitionedCall/model_15/conv_pad_6/Pad", "op": "Pad", "input": ["StatefulPartitionedCall/model_15/conv_pw_5_relu/Relu6", "StatefulPartitionedCall/model_15/conv_pad_6/Pad/paddings"], "attr": {"T": {"type": "DT_FLOAT"}, "Tpaddings": {"type": "DT_INT32"}}}, {"name": "StatefulPartitionedCall/model_15/conv_dw_6/depthwise", "op": "FusedDepthwiseConv2dNative", "input": ["StatefulPartitionedCall/model_15/conv_pad_6/Pad", "StatefulPartitionedCall/model_15/conv_dw_6/depthwise_weights", "StatefulPartitionedCall/model_15/conv_dw_6/depthwise_bn_offset"], "attr": {"data_format": {"s": "TkhXQw=="}, "num_args": {"i": "1"}, "padding": {"s": "VkFMSUQ="}, "explicit_paddings": {"list": {}}, "dilations": {"list": {"i": ["1", "1", "1", "1"]}}, "T": {"type": "DT_FLOAT"}, "fused_ops": {"list": {"s": ["Qmlhc0FkZA==", "UmVsdTY="]}}, "strides": {"list": {"i": ["1", "2", "2", "1"]}}}}, {"name": "StatefulPartitionedCall/model_15/conv_pw_6_relu/Relu6", "op": "_FusedConv2D", "input": ["StatefulPartitionedCall/model_15/conv_dw_6/depthwise", "StatefulPartitionedCall/model_15/conv_pw_6/Conv2D_weights", "StatefulPartitionedCall/model_15/conv_pw_6/Conv2D_bn_offset"], "device": "/device:CPU:0", "attr": {"T": {"type": "DT_FLOAT"}, "explicit_paddings": {"list": {}}, "fused_ops": {"list": {"s": ["Qmlhc0FkZA==", "UmVsdTY="]}}, "epsilon": {"f": 0.0}, "dilations": {"list": {"i": ["1", "1", "1", "1"]}}, "strides": {"list": {"i": ["1", "1", "1", "1"]}}, "padding": {"s": "U0FNRQ=="}, "data_format": {"s": "TkhXQw=="}, "num_args": {"i": "1"}, "use_cudnn_on_gpu": {"b": true}}}, {"name": "StatefulPartitionedCall/model_15/conv_pad_7/Pad", "op": "Pad", "input": ["StatefulPartitionedCall/model_15/conv_pw_6_relu/Relu6", "StatefulPartitionedCall/model_15/conv_pad_7/Pad/paddings"], "attr": {"T": {"type": "DT_FLOAT"}, "Tpaddings": {"type": "DT_INT32"}}}, {"name": "StatefulPartitionedCall/model_15/conv_dw_7/depthwise", "op": "FusedDepthwiseConv2dNative", "input": ["StatefulPartitionedCall/model_15/conv_pad_7/Pad", "StatefulPartitionedCall/model_15/conv_dw_7/depthwise_weights", "StatefulPartitionedCall/model_15/conv_dw_7/depthwise_bn_offset"], "attr": {"data_format": {"s": "TkhXQw=="}, "explicit_paddings": {"list": {}}, "strides": {"list": {"i": ["1", "1", "1", "1"]}}, "padding": {"s": "VkFMSUQ="}, "fused_ops": {"list": {"s": ["Qmlhc0FkZA==", "UmVsdTY="]}}, "dilations": {"list": {"i": ["1", "1", "1", "1"]}}, "T": {"type": "DT_FLOAT"}, "num_args": {"i": "1"}}}, {"name": "StatefulPartitionedCall/model_15/conv_pw_7_relu/Relu6", "op": "_FusedConv2D", "input": ["StatefulPartitionedCall/model_15/conv_dw_7/depthwise", "StatefulPartitionedCall/model_15/conv_pw_7/Conv2D_weights", "StatefulPartitionedCall/model_15/conv_pw_7/Conv2D_bn_offset"], "device": "/device:CPU:0", "attr": {"strides": {"list": {"i": ["1", "1", "1", "1"]}}, "num_args": {"i": "1"}, "use_cudnn_on_gpu": {"b": true}, "padding": {"s": "U0FNRQ=="}, "data_format": {"s": "TkhXQw=="}, "T": {"type": "DT_FLOAT"}, "explicit_paddings": {"list": {}}, "fused_ops": {"list": {"s": ["Qmlhc0FkZA==", "UmVsdTY="]}}, "epsilon": {"f": 0.0}, "dilations": {"list": {"i": ["1", "1", "1", "1"]}}}}, {"name": "StatefulPartitionedCall/model_15/conv_pad_8/Pad", "op": "Pad", "input": ["StatefulPartitionedCall/model_15/conv_pw_7_relu/Relu6", "StatefulPartitionedCall/model_15/conv_pad_8/Pad/paddings"], "attr": {"Tpaddings": {"type": "DT_INT32"}, "T": {"type": "DT_FLOAT"}}}, {"name": "StatefulPartitionedCall/model_15/conv_dw_8/depthwise", "op": "FusedDepthwiseConv2dNative", "input": ["StatefulPartitionedCall/model_15/conv_pad_8/Pad", "StatefulPartitionedCall/model_15/conv_dw_8/depthwise_weights", "StatefulPartitionedCall/model_15/conv_dw_8/depthwise_bn_offset"], "attr": {"T": {"type": "DT_FLOAT"}, "strides": {"list": {"i": ["1", "1", "1", "1"]}}, "explicit_paddings": {"list": {}}, "dilations": {"list": {"i": ["1", "1", "1", "1"]}}, "padding": {"s": "VkFMSUQ="}, "fused_ops": {"list": {"s": ["Qmlhc0FkZA==", "UmVsdTY="]}}, "data_format": {"s": "TkhXQw=="}, "num_args": {"i": "1"}}}, {"name": "StatefulPartitionedCall/model_15/conv_pw_8_relu/Relu6", "op": "_FusedConv2D", "input": ["StatefulPartitionedCall/model_15/conv_dw_8/depthwise", "StatefulPartitionedCall/model_15/conv_pw_8/Conv2D_weights", "StatefulPartitionedCall/model_15/conv_pw_8/Conv2D_bn_offset"], "device": "/device:CPU:0", "attr": {"epsilon": {"f": 0.0}, "dilations": {"list": {"i": ["1", "1", "1", "1"]}}, "T": {"type": "DT_FLOAT"}, "fused_ops": {"list": {"s": ["Qmlhc0FkZA==", "UmVsdTY="]}}, "strides": {"list": {"i": ["1", "1", "1", "1"]}}, "data_format": {"s": "TkhXQw=="}, "num_args": {"i": "1"}, "use_cudnn_on_gpu": {"b": true}, "padding": {"s": "U0FNRQ=="}, "explicit_paddings": {"list": {}}}}, {"name": "StatefulPartitionedCall/model_15/conv_pad_9/Pad", "op": "Pad", "input": ["StatefulPartitionedCall/model_15/conv_pw_8_relu/Relu6", "StatefulPartitionedCall/model_15/conv_pad_9/Pad/paddings"], "attr": {"T": {"type": "DT_FLOAT"}, "Tpaddings": {"type": "DT_INT32"}}}, {"name": "StatefulPartitionedCall/model_15/conv_dw_9/depthwise", "op": "FusedDepthwiseConv2dNative", "input": ["StatefulPartitionedCall/model_15/conv_pad_9/Pad", "StatefulPartitionedCall/model_15/conv_dw_9/depthwise_weights", "StatefulPartitionedCall/model_15/conv_dw_9/depthwise_bn_offset"], "attr": {"padding": {"s": "VkFMSUQ="}, "fused_ops": {"list": {"s": ["Qmlhc0FkZA==", "UmVsdTY="]}}, "data_format": {"s": "TkhXQw=="}, "num_args": {"i": "1"}, "T": {"type": "DT_FLOAT"}, "explicit_paddings": {"list": {}}, "strides": {"list": {"i": ["1", "1", "1", "1"]}}, "dilations": {"list": {"i": ["1", "1", "1", "1"]}}}}, {"name": "StatefulPartitionedCall/model_15/conv_pw_9_relu/Relu6", "op": "_FusedConv2D", "input": ["StatefulPartitionedCall/model_15/conv_dw_9/depthwise", "StatefulPartitionedCall/model_15/conv_pw_9/Conv2D_weights", "StatefulPartitionedCall/model_15/conv_pw_9/Conv2D_bn_offset"], "device": "/device:CPU:0", "attr": {"padding": {"s": "U0FNRQ=="}, "epsilon": {"f": 0.0}, "dilations": {"list": {"i": ["1", "1", "1", "1"]}}, "T": {"type": "DT_FLOAT"}, "strides": {"list": {"i": ["1", "1", "1", "1"]}}, "fused_ops": {"list": {"s": ["Qmlhc0FkZA==", "UmVsdTY="]}}, "num_args": {"i": "1"}, "use_cudnn_on_gpu": {"b": true}, "data_format": {"s": "TkhXQw=="}, "explicit_paddings": {"list": {}}}}, {"name": "StatefulPartitionedCall/model_15/conv_pad_10/Pad", "op": "Pad", "input": ["StatefulPartitionedCall/model_15/conv_pw_9_relu/Relu6", "StatefulPartitionedCall/model_15/conv_pad_10/Pad/paddings"], "attr": {"Tpaddings": {"type": "DT_INT32"}, "T": {"type": "DT_FLOAT"}}}, {"name": "StatefulPartitionedCall/model_15/conv_dw_10/depthwise", "op": "FusedDepthwiseConv2dNative", "input": ["StatefulPartitionedCall/model_15/conv_pad_10/Pad", "StatefulPartitionedCall/model_15/conv_dw_10/depthwise_weights", "StatefulPartitionedCall/model_15/conv_dw_10/depthwise_bn_offset"], "attr": {"padding": {"s": "VkFMSUQ="}, "fused_ops": {"list": {"s": ["Qmlhc0FkZA==", "UmVsdTY="]}}, "dilations": {"list": {"i": ["1", "1", "1", "1"]}}, "T": {"type": "DT_FLOAT"}, "data_format": {"s": "TkhXQw=="}, "num_args": {"i": "1"}, "explicit_paddings": {"list": {}}, "strides": {"list": {"i": ["1", "1", "1", "1"]}}}}, {"name": "StatefulPartitionedCall/model_15/conv_pw_10_relu/Relu6", "op": "_FusedConv2D", "input": ["StatefulPartitionedCall/model_15/conv_dw_10/depthwise", "StatefulPartitionedCall/model_15/conv_pw_10/Conv2D_weights", "StatefulPartitionedCall/model_15/conv_pw_10/Conv2D_bn_offset"], "device": "/device:CPU:0", "attr": {"fused_ops": {"list": {"s": ["Qmlhc0FkZA==", "UmVsdTY="]}}, "use_cudnn_on_gpu": {"b": true}, "data_format": {"s": "TkhXQw=="}, "explicit_paddings": {"list": {}}, "padding": {"s": "U0FNRQ=="}, "epsilon": {"f": 0.0}, "T": {"type": "DT_FLOAT"}, "dilations": {"list": {"i": ["1", "1", "1", "1"]}}, "num_args": {"i": "1"}, "strides": {"list": {"i": ["1", "1", "1", "1"]}}}}, {"name": "StatefulPartitionedCall/model_15/conv_pad_11/Pad", "op": "Pad", "input": ["StatefulPartitionedCall/model_15/conv_pw_10_relu/Relu6", "StatefulPartitionedCall/model_15/conv_pad_11/Pad/paddings"], "attr": {"T": {"type": "DT_FLOAT"}, "Tpaddings": {"type": "DT_INT32"}}}, {"name": "StatefulPartitionedCall/model_15/conv_dw_11/depthwise", "op": "FusedDepthwiseConv2dNative", "input": ["StatefulPartitionedCall/model_15/conv_pad_11/Pad", "StatefulPartitionedCall/model_15/conv_dw_11/depthwise_weights", "StatefulPartitionedCall/model_15/conv_dw_11/depthwise_bn_offset"], "attr": {"explicit_paddings": {"list": {}}, "fused_ops": {"list": {"s": ["Qmlhc0FkZA==", "UmVsdTY="]}}, "dilations": {"list": {"i": ["1", "1", "1", "1"]}}, "strides": {"list": {"i": ["1", "1", "1", "1"]}}, "num_args": {"i": "1"}, "data_format": {"s": "TkhXQw=="}, "padding": {"s": "VkFMSUQ="}, "T": {"type": "DT_FLOAT"}}}, {"name": "StatefulPartitionedCall/model_15/conv_pw_11_relu/Relu6", "op": "_FusedConv2D", "input": ["StatefulPartitionedCall/model_15/conv_dw_11/depthwise", "StatefulPartitionedCall/model_15/conv_pw_11/Conv2D_weights", "StatefulPartitionedCall/model_15/conv_pw_11/Conv2D_bn_offset"], "device": "/device:CPU:0", "attr": {"T": {"type": "DT_FLOAT"}, "fused_ops": {"list": {"s": ["Qmlhc0FkZA==", "UmVsdTY="]}}, "explicit_paddings": {"list": {}}, "epsilon": {"f": 0.0}, "dilations": {"list": {"i": ["1", "1", "1", "1"]}}, "padding": {"s": "U0FNRQ=="}, "data_format": {"s": "TkhXQw=="}, "strides": {"list": {"i": ["1", "1", "1", "1"]}}, "num_args": {"i": "1"}, "use_cudnn_on_gpu": {"b": true}}}, {"name": "StatefulPartitionedCall/model_15/zero_padding2d_8/Pad", "op": "Pad", "input": ["StatefulPartitionedCall/model_15/conv_pw_11_relu/Relu6", "StatefulPartitionedCall/model_15/zero_padding2d_8/Pad/paddings"], "attr": {"Tpaddings": {"type": "DT_INT32"}, "T": {"type": "DT_FLOAT"}}}, {"name": "StatefulPartitionedCall/model_15/batch_normalization_8/FusedBatchNormV3", "op": "_FusedConv2D", "input": ["StatefulPartitionedCall/model_15/zero_padding2d_8/Pad", "StatefulPartitionedCall/model_15/conv2d_10/Conv2D_weights", "StatefulPartitionedCall/model_15/conv2d_10/Conv2D_bn_offset"], "device": "/device:CPU:0", "attr": {"padding": {"s": "VkFMSUQ="}, "data_format": {"s": "TkhXQw=="}, "explicit_paddings": {"list": {}}, "strides": {"list": {"i": ["1", "1", "1", "1"]}}, "epsilon": {"f": 0.0}, "dilations": {"list": {"i": ["1", "1", "1", "1"]}}, "T": {"type": "DT_FLOAT"}, "fused_ops": {"list": {"s": ["Qmlhc0FkZA=="]}}, "num_args": {"i": "1"}, "use_cudnn_on_gpu": {"b": true}}}, {"name": "StatefulPartitionedCall/model_15/up_sampling2d_6/resize/ResizeNearestNeighbor", "op": "ResizeNearestNeighbor", "input": ["StatefulPartitionedCall/model_15/batch_normalization_8/FusedBatchNormV3", "StatefulPartitionedCall/model_15/up_sampling2d_6/mul"], "attr": {"T": {"type": "DT_FLOAT"}, "align_corners": {"b": false}, "half_pixel_centers": {"b": true}}}, {"name": "StatefulPartitionedCall/model_15/zero_padding2d_9/Pad", "op": "Pad", "input": ["StatefulPartitionedCall/model_15/up_sampling2d_6/resize/ResizeNearestNeighbor", "StatefulPartitionedCall/model_15/zero_padding2d_9/Pad/paddings"], "attr": {"Tpaddings": {"type": "DT_INT32"}, "T": {"type": "DT_FLOAT"}}}, {"name": "StatefulPartitionedCall/model_15/batch_normalization_9/FusedBatchNormV3", "op": "_FusedConv2D", "input": ["StatefulPartitionedCall/model_15/zero_padding2d_9/Pad", "StatefulPartitionedCall/model_15/conv2d_11/Conv2D_weights", "StatefulPartitionedCall/model_15/conv2d_11/Conv2D_bn_offset"], "device": "/device:CPU:0", "attr": {"T": {"type": "DT_FLOAT"}, "dilations": {"list": {"i": ["1", "1", "1", "1"]}}, "fused_ops": {"list": {"s": ["Qmlhc0FkZA=="]}}, "epsilon": {"f": 0.0}, "num_args": {"i": "1"}, "data_format": {"s": "TkhXQw=="}, "padding": {"s": "VkFMSUQ="}, "use_cudnn_on_gpu": {"b": true}, "strides": {"list": {"i": ["1", "1", "1", "1"]}}, "explicit_paddings": {"list": {}}}}, {"name": "StatefulPartitionedCall/model_15/up_sampling2d_7/resize/ResizeNearestNeighbor", "op": "ResizeNearestNeighbor", "input": ["StatefulPartitionedCall/model_15/batch_normalization_9/FusedBatchNormV3", "StatefulPartitionedCall/model_15/up_sampling2d_7/mul"], "attr": {"align_corners": {"b": false}, "half_pixel_centers": {"b": true}, "T": {"type": "DT_FLOAT"}}}, {"name": "StatefulPartitionedCall/model_15/zero_padding2d_10/Pad", "op": "Pad", "input": ["StatefulPartitionedCall/model_15/up_sampling2d_7/resize/ResizeNearestNeighbor", "StatefulPartitionedCall/model_15/zero_padding2d_10/Pad/paddings"], "attr": {"Tpaddings": {"type": "DT_INT32"}, "T": {"type": "DT_FLOAT"}}}, {"name": "StatefulPartitionedCall/model_15/batch_normalization_10/FusedBatchNormV3", "op": "_FusedConv2D", "input": ["StatefulPartitionedCall/model_15/zero_padding2d_10/Pad", "StatefulPartitionedCall/model_15/conv2d_12/Conv2D_weights", "StatefulPartitionedCall/model_15/conv2d_12/Conv2D_bn_offset"], "device": "/device:CPU:0", "attr": {"dilations": {"list": {"i": ["1", "1", "1", "1"]}}, "T": {"type": "DT_FLOAT"}, "num_args": {"i": "1"}, "epsilon": {"f": 0.0}, "use_cudnn_on_gpu": {"b": true}, "data_format": {"s": "TkhXQw=="}, "fused_ops": {"list": {"s": ["Qmlhc0FkZA=="]}}, "strides": {"list": {"i": ["1", "1", "1", "1"]}}, "explicit_paddings": {"list": {}}, "padding": {"s": "VkFMSUQ="}}}, {"name": "StatefulPartitionedCall/model_15/up_sampling2d_8/resize/ResizeNearestNeighbor", "op": "ResizeNearestNeighbor", "input": ["StatefulPartitionedCall/model_15/batch_normalization_10/FusedBatchNormV3", "StatefulPartitionedCall/model_15/up_sampling2d_8/mul"], "attr": {"align_corners": {"b": false}, "half_pixel_centers": {"b": true}, "T": {"type": "DT_FLOAT"}}}, {"name": "StatefulPartitionedCall/model_15/zero_padding2d_11/Pad", "op": "Pad", "input": ["StatefulPartitionedCall/model_15/up_sampling2d_8/resize/ResizeNearestNeighbor", "StatefulPartitionedCall/model_15/zero_padding2d_11/Pad/paddings"], "attr": {"T": {"type": "DT_FLOAT"}, "Tpaddings": {"type": "DT_INT32"}}}, {"name": "StatefulPartitionedCall/model_15/batch_normalization_11/FusedBatchNormV3", "op": "_FusedConv2D", "input": ["StatefulPartitionedCall/model_15/zero_padding2d_11/Pad", "StatefulPartitionedCall/model_15/seg_feats/Conv2D_weights", "StatefulPartitionedCall/model_15/seg_feats/Conv2D_bn_offset"], "device": "/device:CPU:0", "attr": {"dilations": {"list": {"i": ["1", "1", "1", "1"]}}, "strides": {"list": {"i": ["1", "1", "1", "1"]}}, "explicit_paddings": {"list": {}}, "padding": {"s": "VkFMSUQ="}, "use_cudnn_on_gpu": {"b": true}, "data_format": {"s": "TkhXQw=="}, "num_args": {"i": "1"}, "fused_ops": {"list": {"s": ["Qmlhc0FkZA=="]}}, "T": {"type": "DT_FLOAT"}, "epsilon": {"f": 0.0}}}, {"name": "StatefulPartitionedCall/model_15/conv2d_13/BiasAdd", "op": "_FusedConv2D", "input": ["StatefulPartitionedCall/model_15/batch_normalization_11/FusedBatchNormV3", "StatefulPartitionedCall/model_15/conv2d_13/Conv2D/ReadVariableOp", "StatefulPartitionedCall/model_15/conv2d_13/BiasAdd/ReadVariableOp"], "device": "/device:CPU:0", "attr": {"strides": {"list": {"i": ["1", "1", "1", "1"]}}, "data_format": {"s": "TkhXQw=="}, "T": {"type": "DT_FLOAT"}, "epsilon": {"f": 0.0}, "explicit_paddings": {"list": {}}, "dilations": {"list": {"i": ["1", "1", "1", "1"]}}, "num_args": {"i": "1"}, "fused_ops": {"list": {"s": ["Qmlhc0FkZA=="]}}, "padding": {"s": "U0FNRQ=="}, "use_cudnn_on_gpu": {"b": true}}}, {"name": "StatefulPartitionedCall/model_15/reshape_3/Shape", "op": "Shape", "input": ["StatefulPartitionedCall/model_15/conv2d_13/BiasAdd"], "attr": {"out_type": {"type": "DT_INT32"}, "T": {"type": "DT_FLOAT"}}}, {"name": "StatefulPartitionedCall/model_15/reshape_3/strided_slice", "op": "StridedSlice", "input": ["StatefulPartitionedCall/model_15/reshape_3/Shape", "StatefulPartitionedCall/model_15/reshape_3/strided_slice/stack", "StatefulPartitionedCall/model_15/reshape_3/strided_slice/stack_1", "StatefulPartitionedCall/model_15/reshape_3/strided_slice/stack_2"], "attr": {"shrink_axis_mask": {"i": "1"}, "Index": {"type": "DT_INT32"}, "begin_mask": {"i": "0"}, "T": {"type": "DT_INT32"}, "end_mask": {"i": "0"}, "ellipsis_mask": {"i": "0"}, "new_axis_mask": {"i": "0"}}}, {"name": "StatefulPartitionedCall/model_15/reshape_3/Reshape/shape", "op": "Pack", "input": ["StatefulPartitionedCall/model_15/reshape_3/strided_slice", "StatefulPartitionedCall/model_15/reshape_3/Reshape/shape/1", "StatefulPartitionedCall/model_15/reshape_3/Reshape/shape/2"], "attr": {"axis": {"i": "0"}, "T": {"type": "DT_INT32"}, "N": {"i": "3"}}}, {"name": "StatefulPartitionedCall/model_15/reshape_3/Reshape", "op": "Reshape", "input": ["StatefulPartitionedCall/model_15/conv2d_13/BiasAdd", "StatefulPartitionedCall/model_15/reshape_3/Reshape/shape"], "attr": {"Tshape": {"type": "DT_INT32"}, "T": {"type": "DT_FLOAT"}}}, {"name": "StatefulPartitionedCall/model_15/activation_3/Softmax", "op": "Softmax", "input": ["StatefulPartitionedCall/model_15/reshape_3/Reshape"], "attr": {"T": {"type": "DT_FLOAT"}}}, {"name": "Identity", "op": "Identity", "input": ["StatefulPartitionedCall/model_15/activation_3/Softmax"], "attr": {"T": {"type": "DT_FLOAT"}}}], "library": {}, "versions": {"producer": 1087}}, "weightsManifest": [{"paths": ["group1-shard1of3.bin", "group1-shard2of3.bin", "group1-shard3of3.bin"], "weights": [{"name": "StatefulPartitionedCall/model_15/conv1_pad/Pad/paddings", "shape": [4, 2], "dtype": "int32"}, {"name": "StatefulPartitionedCall/model_15/conv_pad_1/Pad/paddings", "shape": [4, 2], "dtype": "int32"}, {"name": "StatefulPartitionedCall/model_15/conv_pad_2/Pad/paddings", "shape": [4, 2], "dtype": "int32"}, {"name": "StatefulPartitionedCall/model_15/conv_pad_3/Pad/paddings", "shape": [4, 2], "dtype": "int32"}, {"name": "StatefulPartitionedCall/model_15/conv_pad_4/Pad/paddings", "shape": [4, 2], "dtype": "int32"}, {"name": "StatefulPartitionedCall/model_15/conv_pad_5/Pad/paddings", "shape": [4, 2], "dtype": "int32"}, {"name": "StatefulPartitionedCall/model_15/conv_pad_6/Pad/paddings", "shape": [4, 2], "dtype": "int32"}, {"name": "StatefulPartitionedCall/model_15/conv_pad_7/Pad/paddings", "shape": [4, 2], "dtype": "int32"}, {"name": "StatefulPartitionedCall/model_15/conv_pad_8/Pad/paddings", "shape": [4, 2], "dtype": "int32"}, {"name": "StatefulPartitionedCall/model_15/conv_pad_9/Pad/paddings", "shape": [4, 2], "dtype": "int32"}, {"name": "StatefulPartitionedCall/model_15/conv_pad_10/Pad/paddings", "shape": [4, 2], "dtype": "int32"}, {"name": "StatefulPartitionedCall/model_15/conv_pad_11/Pad/paddings", "shape": [4, 2], "dtype": "int32"}, {"name": "StatefulPartitionedCall/model_15/zero_padding2d_8/Pad/paddings", "shape": [4, 2], "dtype": "int32"}, {"name": "StatefulPartitionedCall/model_15/up_sampling2d_6/mul", "shape": [2], "dtype": "int32"}, {"name": "StatefulPartitionedCall/model_15/zero_padding2d_9/Pad/paddings", "shape": [4, 2], "dtype": "int32"}, {"name": "StatefulPartitionedCall/model_15/up_sampling2d_7/mul", "shape": [2], "dtype": "int32"}, {"name": "StatefulPartitionedCall/model_15/zero_padding2d_10/Pad/paddings", "shape": [4, 2], "dtype": "int32"}, {"name": "StatefulPartitionedCall/model_15/up_sampling2d_8/mul", "shape": [2], "dtype": "int32"}, {"name": "StatefulPartitionedCall/model_15/zero_padding2d_11/Pad/paddings", "shape": [4, 2], "dtype": "int32"}, {"name": "StatefulPartitionedCall/model_15/conv2d_13/Conv2D/ReadVariableOp", "shape": [3, 3, 64, 2], "dtype": "float32", "quantization": {"dtype": "float16", "original_dtype": "float32"}}, {"name": "StatefulPartitionedCall/model_15/conv2d_13/BiasAdd/ReadVariableOp", "shape": [2], "dtype": "float32", "quantization": {"dtype": "float16", "original_dtype": "float32"}}, {"name": "StatefulPartitionedCall/model_15/reshape_3/strided_slice/stack", "shape": [1], "dtype": "int32"}, {"name": "StatefulPartitionedCall/model_15/reshape_3/strided_slice/stack_1", "shape": [1], "dtype": "int32"}, {"name": "StatefulPartitionedCall/model_15/reshape_3/strided_slice/stack_2", "shape": [1], "dtype": "int32"}, {"name": "StatefulPartitionedCall/model_15/reshape_3/Reshape/shape/1", "shape": [], "dtype": "int32"}, {"name": "StatefulPartitionedCall/model_15/reshape_3/Reshape/shape/2", "shape": [], "dtype": "int32"}, {"name": "StatefulPartitionedCall/model_15/conv1/Conv2D_weights", "shape": [3, 3, 3, 32], "dtype": "float32", "quantization": {"dtype": "float16", "original_dtype": "float32"}}, {"name": "StatefulPartitionedCall/model_15/conv1/Conv2D_bn_offset", "shape": [32], "dtype": "float32", "quantization": {"dtype": "float16", "original_dtype": "float32"}}, {"name": "StatefulPartitionedCall/model_15/conv2d_10/Conv2D_bn_offset", "shape": [512], "dtype": "float32", "quantization": {"dtype": "float16", "original_dtype": "float32"}}, {"name": "StatefulPartitionedCall/model_15/conv_dw_1/depthwise_weights", "shape": [3, 3, 32, 1], "dtype": "float32", "quantization": {"dtype": "float16", "original_dtype": "float32"}}, {"name": "StatefulPartitionedCall/model_15/conv_dw_1/depthwise_bn_offset", "shape": [32], "dtype": "float32", "quantization": {"dtype": "float16", "original_dtype": "float32"}}, {"name": "StatefulPartitionedCall/model_15/conv_pw_1/Conv2D_weights", "shape": [1, 1, 32, 64], "dtype": "float32", "quantization": {"dtype": "float16", "original_dtype": "float32"}}, {"name": "StatefulPartitionedCall/model_15/conv_pw_1/Conv2D_bn_offset", "shape": [64], "dtype": "float32", "quantization": {"dtype": "float16", "original_dtype": "float32"}}, {"name": "StatefulPartitionedCall/model_15/conv_dw_2/depthwise_weights", "shape": [3, 3, 64, 1], "dtype": "float32", "quantization": {"dtype": "float16", "original_dtype": "float32"}}, {"name": "StatefulPartitionedCall/model_15/conv_dw_2/depthwise_bn_offset", "shape": [64], "dtype": "float32", "quantization": {"dtype": "float16", "original_dtype": "float32"}}, {"name": "StatefulPartitionedCall/model_15/conv_pw_2/Conv2D_weights", "shape": [1, 1, 64, 128], "dtype": "float32", "quantization": {"dtype": "float16", "original_dtype": "float32"}}, {"name": "StatefulPartitionedCall/model_15/conv_pw_2/Conv2D_bn_offset", "shape": [128], "dtype": "float32", "quantization": {"dtype": "float16", "original_dtype": "float32"}}, {"name": "StatefulPartitionedCall/model_15/conv2d_11/Conv2D_weights", "shape": [3, 3, 512, 256], "dtype": "float32", "quantization": {"dtype": "float16", "original_dtype": "float32"}}, {"name": "StatefulPartitionedCall/model_15/conv_dw_3/depthwise_weights", "shape": [3, 3, 128, 1], "dtype": "float32", "quantization": {"dtype": "float16", "original_dtype": "float32"}}, {"name": "StatefulPartitionedCall/model_15/conv_dw_3/depthwise_bn_offset", "shape": [128], "dtype": "float32", "quantization": {"dtype": "float16", "original_dtype": "float32"}}, {"name": "StatefulPartitionedCall/model_15/conv_pw_3/Conv2D_weights", "shape": [1, 1, 128, 128], "dtype": "float32", "quantization": {"dtype": "float16", "original_dtype": "float32"}}, {"name": "StatefulPartitionedCall/model_15/conv_pw_3/Conv2D_bn_offset", "shape": [128], "dtype": "float32", "quantization": {"dtype": "float16", "original_dtype": "float32"}}, {"name": "StatefulPartitionedCall/model_15/conv2d_11/Conv2D_bn_offset", "shape": [256], "dtype": "float32", "quantization": {"dtype": "float16", "original_dtype": "float32"}}, {"name": "StatefulPartitionedCall/model_15/conv_dw_4/depthwise_weights", "shape": [3, 3, 128, 1], "dtype": "float32", "quantization": {"dtype": "float16", "original_dtype": "float32"}}, {"name": "StatefulPartitionedCall/model_15/conv_dw_4/depthwise_bn_offset", "shape": [128], "dtype": "float32", "quantization": {"dtype": "float16", "original_dtype": "float32"}}, {"name": "StatefulPartitionedCall/model_15/conv_pw_4/Conv2D_weights", "shape": [1, 1, 128, 256], "dtype": "float32", "quantization": {"dtype": "float16", "original_dtype": "float32"}}, {"name": "StatefulPartitionedCall/model_15/conv_pw_4/Conv2D_bn_offset", "shape": [256], "dtype": "float32", "quantization": {"dtype": "float16", "original_dtype": "float32"}}, {"name": "StatefulPartitionedCall/model_15/conv_dw_5/depthwise_weights", "shape": [3, 3, 256, 1], "dtype": "float32", "quantization": {"dtype": "float16", "original_dtype": "float32"}}, {"name": "StatefulPartitionedCall/model_15/conv_dw_5/depthwise_bn_offset", "shape": [256], "dtype": "float32", "quantization": {"dtype": "float16", "original_dtype": "float32"}}, {"name": "StatefulPartitionedCall/model_15/conv_pw_5/Conv2D_weights", "shape": [1, 1, 256, 256], "dtype": "float32", "quantization": {"dtype": "float16", "original_dtype": "float32"}}, {"name": "StatefulPartitionedCall/model_15/conv_pw_5/Conv2D_bn_offset", "shape": [256], "dtype": "float32", "quantization": {"dtype": "float16", "original_dtype": "float32"}}, {"name": "StatefulPartitionedCall/model_15/conv2d_12/Conv2D_weights", "shape": [3, 3, 256, 128], "dtype": "float32", "quantization": {"dtype": "float16", "original_dtype": "float32"}}, {"name": "StatefulPartitionedCall/model_15/conv_dw_6/depthwise_weights", "shape": [3, 3, 256, 1], "dtype": "float32", "quantization": {"dtype": "float16", "original_dtype": "float32"}}, {"name": "StatefulPartitionedCall/model_15/conv_dw_6/depthwise_bn_offset", "shape": [256], "dtype": "float32", "quantization": {"dtype": "float16", "original_dtype": "float32"}}, {"name": "StatefulPartitionedCall/model_15/conv_pw_6/Conv2D_weights", "shape": [1, 1, 256, 512], "dtype": "float32", "quantization": {"dtype": "float16", "original_dtype": "float32"}}, {"name": "StatefulPartitionedCall/model_15/conv_pw_6/Conv2D_bn_offset", "shape": [512], "dtype": "float32", "quantization": {"dtype": "float16", "original_dtype": "float32"}}, {"name": "StatefulPartitionedCall/model_15/conv2d_12/Conv2D_bn_offset", "shape": [128], "dtype": "float32", "quantization": {"dtype": "float16", "original_dtype": "float32"}}, {"name": "StatefulPartitionedCall/model_15/conv_dw_7/depthwise_weights", "shape": [3, 3, 512, 1], "dtype": "float32", "quantization": {"dtype": "float16", "original_dtype": "float32"}}, {"name": "StatefulPartitionedCall/model_15/conv_dw_7/depthwise_bn_offset", "shape": [512], "dtype": "float32", "quantization": {"dtype": "float16", "original_dtype": "float32"}}, {"name": "StatefulPartitionedCall/model_15/conv_pw_7/Conv2D_weights", "shape": [1, 1, 512, 512], "dtype": "float32", "quantization": {"dtype": "float16", "original_dtype": "float32"}}, {"name": "StatefulPartitionedCall/model_15/conv_pw_7/Conv2D_bn_offset", "shape": [512], "dtype": "float32", "quantization": {"dtype": "float16", "original_dtype": "float32"}}, {"name": "StatefulPartitionedCall/model_15/conv_dw_8/depthwise_weights", "shape": [3, 3, 512, 1], "dtype": "float32", "quantization": {"dtype": "float16", "original_dtype": "float32"}}, {"name": "StatefulPartitionedCall/model_15/conv_dw_8/depthwise_bn_offset", "shape": [512], "dtype": "float32", "quantization": {"dtype": "float16", "original_dtype": "float32"}}, {"name": "StatefulPartitionedCall/model_15/conv_pw_8/Conv2D_weights", "shape": [1, 1, 512, 512], "dtype": "float32", "quantization": {"dtype": "float16", "original_dtype": "float32"}}, {"name": "StatefulPartitionedCall/model_15/conv_pw_8/Conv2D_bn_offset", "shape": [512], "dtype": "float32", "quantization": {"dtype": "float16", "original_dtype": "float32"}}, {"name": "StatefulPartitionedCall/model_15/seg_feats/Conv2D_weights", "shape": [3, 3, 128, 64], "dtype": "float32", "quantization": {"dtype": "float16", "original_dtype": "float32"}}, {"name": "StatefulPartitionedCall/model_15/conv_dw_9/depthwise_weights", "shape": [3, 3, 512, 1], "dtype": "float32", "quantization": {"dtype": "float16", "original_dtype": "float32"}}, {"name": "StatefulPartitionedCall/model_15/conv_dw_9/depthwise_bn_offset", "shape": [512], "dtype": "float32", "quantization": {"dtype": "float16", "original_dtype": "float32"}}, {"name": "StatefulPartitionedCall/model_15/conv_pw_9/Conv2D_weights", "shape": [1, 1, 512, 512], "dtype": "float32", "quantization": {"dtype": "float16", "original_dtype": "float32"}}, {"name": "StatefulPartitionedCall/model_15/conv_pw_9/Conv2D_bn_offset", "shape": [512], "dtype": "float32", "quantization": {"dtype": "float16", "original_dtype": "float32"}}, {"name": "StatefulPartitionedCall/model_15/seg_feats/Conv2D_bn_offset", "shape": [64], "dtype": "float32", "quantization": {"dtype": "float16", "original_dtype": "float32"}}, {"name": "StatefulPartitionedCall/model_15/conv_dw_10/depthwise_weights", "shape": [3, 3, 512, 1], "dtype": "float32", "quantization": {"dtype": "float16", "original_dtype": "float32"}}, {"name": "StatefulPartitionedCall/model_15/conv_dw_10/depthwise_bn_offset", "shape": [512], "dtype": "float32", "quantization": {"dtype": "float16", "original_dtype": "float32"}}, {"name": "StatefulPartitionedCall/model_15/conv_pw_10/Conv2D_weights", "shape": [1, 1, 512, 512], "dtype": "float32", "quantization": {"dtype": "float16", "original_dtype": "float32"}}, {"name": "StatefulPartitionedCall/model_15/conv_pw_10/Conv2D_bn_offset", "shape": [512], "dtype": "float32", "quantization": {"dtype": "float16", "original_dtype": "float32"}}, {"name": "StatefulPartitionedCall/model_15/conv_dw_11/depthwise_weights", "shape": [3, 3, 512, 1], "dtype": "float32", "quantization": {"dtype": "float16", "original_dtype": "float32"}}, {"name": "StatefulPartitionedCall/model_15/conv_dw_11/depthwise_bn_offset", "shape": [512], "dtype": "float32", "quantization": {"dtype": "float16", "original_dtype": "float32"}}, {"name": "StatefulPartitionedCall/model_15/conv_pw_11/Conv2D_weights", "shape": [1, 1, 512, 512], "dtype": "float32", "quantization": {"dtype": "float16", "original_dtype": "float32"}}, {"name": "StatefulPartitionedCall/model_15/conv_pw_11/Conv2D_bn_offset", "shape": [512], "dtype": "float32", "quantization": {"dtype": "float16", "original_dtype": "float32"}}, {"name": "StatefulPartitionedCall/model_15/conv2d_10/Conv2D_weights", "shape": [3, 3, 512, 512], "dtype": "float32", "quantization": {"dtype": "float16", "original_dtype": "float32"}}]}]}