{"format": "layers-model", "generatedBy": "keras v2.12.0", "convertedBy": "TensorFlow.js Converter v4.5.0", "modelTopology": {"keras_version": "2.12.0", "backend": "tensorflow", "model_config": {"class_name": "Functional", "config": {"name": "model_3", "trainable": true, "layers": [{"class_name": "InputLayer", "config": {"batch_input_shape": [null, 512, 512, 3], "dtype": "float32", "sparse": false, "ragged": false, "name": "input_1"}, "name": "input_1", "inbound_nodes": []}, {"class_name": "ZeroPadding2D", "config": {"name": "conv1_pad", "trainable": true, "dtype": "float32", "padding": [[1, 1], [1, 1]], "data_format": "channels_last"}, "name": "conv1_pad", "inbound_nodes": [[["input_1", 0, 0, {}]]]}, {"class_name": "Conv2D", "config": {"name": "conv1", "trainable": true, "dtype": "float32", "filters": 32, "kernel_size": [3, 3], "strides": [2, 2], "padding": "valid", "data_format": "channels_last", "dilation_rate": [1, 1], "groups": 1, "activation": "linear", "use_bias": false, "kernel_initializer": {"class_name": "GlorotUniform", "config": {"seed": null}}, "bias_initializer": {"class_name": "Zeros", "config": {}}, "kernel_regularizer": null, "bias_regularizer": null, "activity_regularizer": null, "kernel_constraint": null, "bias_constraint": null}, "name": "conv1", "inbound_nodes": [[["conv1_pad", 0, 0, {}]]]}, {"class_name": "BatchNormalization", "config": {"name": "conv1_bn", "trainable": true, "dtype": "float32", "axis": [3], "momentum": 0.99, "epsilon": 0.001, "center": true, "scale": true, "beta_initializer": {"class_name": "Zeros", "config": {}}, "gamma_initializer": {"class_name": "Ones", "config": {}}, "moving_mean_initializer": {"class_name": "Zeros", "config": {}}, "moving_variance_initializer": {"class_name": "Ones", "config": {}}, "beta_regularizer": null, "gamma_regularizer": null, "beta_constraint": null, "gamma_constraint": null}, "name": "conv1_bn", "inbound_nodes": [[["conv1", 0, 0, {}]]]}, {"class_name": "Activation", "config": {"name": "conv1_relu", "trainable": true, "dtype": "float32", "activation": "relu6"}, "name": "conv1_relu", "inbound_nodes": [[["conv1_bn", 0, 0, {}]]]}, {"class_name": "ZeroPadding2D", "config": {"name": "conv_pad_1", "trainable": true, "dtype": "float32", "padding": [[1, 1], [1, 1]], "data_format": "channels_last"}, "name": "conv_pad_1", "inbound_nodes": [[["conv1_relu", 0, 0, {}]]]}, {"class_name": "DepthwiseConv2D", "config": {"name": "conv_dw_1", "trainable": true, "dtype": "float32", "kernel_size": [3, 3], "strides": [1, 1], "padding": "valid", "data_format": "channels_last", "dilation_rate": [1, 1], "groups": 1, "activation": "linear", "use_bias": false, "bias_initializer": {"class_name": "Zeros", "config": {}}, "bias_regularizer": null, "activity_regularizer": null, "bias_constraint": null, "depth_multiplier": 1, "depthwise_initializer": {"class_name": "GlorotUniform", "config": {"seed": null}}, "depthwise_regularizer": null, "depthwise_constraint": null}, "name": "conv_dw_1", "inbound_nodes": [[["conv_pad_1", 0, 0, {}]]]}, {"class_name": "BatchNormalization", "config": {"name": "conv_dw_1_bn", "trainable": true, "dtype": "float32", "axis": [3], "momentum": 0.99, "epsilon": 0.001, "center": true, "scale": true, "beta_initializer": {"class_name": "Zeros", "config": {}}, "gamma_initializer": {"class_name": "Ones", "config": {}}, "moving_mean_initializer": {"class_name": "Zeros", "config": {}}, "moving_variance_initializer": {"class_name": "Ones", "config": {}}, "beta_regularizer": null, "gamma_regularizer": null, "beta_constraint": null, "gamma_constraint": null}, "name": "conv_dw_1_bn", "inbound_nodes": [[["conv_dw_1", 0, 0, {}]]]}, {"class_name": "Activation", "config": {"name": "conv_dw_1_relu", "trainable": true, "dtype": "float32", "activation": "relu6"}, "name": "conv_dw_1_relu", "inbound_nodes": [[["conv_dw_1_bn", 0, 0, {}]]]}, {"class_name": "Conv2D", "config": {"name": "conv_pw_1", "trainable": true, "dtype": "float32", "filters": 64, "kernel_size": [1, 1], "strides": [1, 1], "padding": "same", "data_format": "channels_last", "dilation_rate": [1, 1], "groups": 1, "activation": "linear", "use_bias": false, "kernel_initializer": {"class_name": "GlorotUniform", "config": {"seed": null}}, "bias_initializer": {"class_name": "Zeros", "config": {}}, "kernel_regularizer": null, "bias_regularizer": null, "activity_regularizer": null, "kernel_constraint": null, "bias_constraint": null}, "name": "conv_pw_1", "inbound_nodes": [[["conv_dw_1_relu", 0, 0, {}]]]}, {"class_name": "BatchNormalization", "config": {"name": "conv_pw_1_bn", "trainable": true, "dtype": "float32", "axis": [3], "momentum": 0.99, "epsilon": 0.001, "center": true, "scale": true, "beta_initializer": {"class_name": "Zeros", "config": {}}, "gamma_initializer": {"class_name": "Ones", "config": {}}, "moving_mean_initializer": {"class_name": "Zeros", "config": {}}, "moving_variance_initializer": {"class_name": "Ones", "config": {}}, "beta_regularizer": null, "gamma_regularizer": null, "beta_constraint": null, "gamma_constraint": null}, "name": "conv_pw_1_bn", "inbound_nodes": [[["conv_pw_1", 0, 0, {}]]]}, {"class_name": "Activation", "config": {"name": "conv_pw_1_relu", "trainable": true, "dtype": "float32", "activation": "relu6"}, "name": "conv_pw_1_relu", "inbound_nodes": [[["conv_pw_1_bn", 0, 0, {}]]]}, {"class_name": "ZeroPadding2D", "config": {"name": "conv_pad_2", "trainable": true, "dtype": "float32", "padding": [[1, 1], [1, 1]], "data_format": "channels_last"}, "name": "conv_pad_2", "inbound_nodes": [[["conv_pw_1_relu", 0, 0, {}]]]}, {"class_name": "DepthwiseConv2D", "config": {"name": "conv_dw_2", "trainable": true, "dtype": "float32", "kernel_size": [3, 3], "strides": [2, 2], "padding": "valid", "data_format": "channels_last", "dilation_rate": [1, 1], "groups": 1, "activation": "linear", "use_bias": false, "bias_initializer": {"class_name": "Zeros", "config": {}}, "bias_regularizer": null, "activity_regularizer": null, "bias_constraint": null, "depth_multiplier": 1, "depthwise_initializer": {"class_name": "GlorotUniform", "config": {"seed": null}}, "depthwise_regularizer": null, "depthwise_constraint": null}, "name": "conv_dw_2", "inbound_nodes": [[["conv_pad_2", 0, 0, {}]]]}, {"class_name": "BatchNormalization", "config": {"name": "conv_dw_2_bn", "trainable": true, "dtype": "float32", "axis": [3], "momentum": 0.99, "epsilon": 0.001, "center": true, "scale": true, "beta_initializer": {"class_name": "Zeros", "config": {}}, "gamma_initializer": {"class_name": "Ones", "config": {}}, "moving_mean_initializer": {"class_name": "Zeros", "config": {}}, "moving_variance_initializer": {"class_name": "Ones", "config": {}}, "beta_regularizer": null, "gamma_regularizer": null, "beta_constraint": null, "gamma_constraint": null}, "name": "conv_dw_2_bn", "inbound_nodes": [[["conv_dw_2", 0, 0, {}]]]}, {"class_name": "Activation", "config": {"name": "conv_dw_2_relu", "trainable": true, "dtype": "float32", "activation": "relu6"}, "name": "conv_dw_2_relu", "inbound_nodes": [[["conv_dw_2_bn", 0, 0, {}]]]}, {"class_name": "Conv2D", "config": {"name": "conv_pw_2", "trainable": true, "dtype": "float32", "filters": 128, "kernel_size": [1, 1], "strides": [1, 1], "padding": "same", "data_format": "channels_last", "dilation_rate": [1, 1], "groups": 1, "activation": "linear", "use_bias": false, "kernel_initializer": {"class_name": "GlorotUniform", "config": {"seed": null}}, "bias_initializer": {"class_name": "Zeros", "config": {}}, "kernel_regularizer": null, "bias_regularizer": null, "activity_regularizer": null, "kernel_constraint": null, "bias_constraint": null}, "name": "conv_pw_2", "inbound_nodes": [[["conv_dw_2_relu", 0, 0, {}]]]}, {"class_name": "BatchNormalization", "config": {"name": "conv_pw_2_bn", "trainable": true, "dtype": "float32", "axis": [3], "momentum": 0.99, "epsilon": 0.001, "center": true, "scale": true, "beta_initializer": {"class_name": "Zeros", "config": {}}, "gamma_initializer": {"class_name": "Ones", "config": {}}, "moving_mean_initializer": {"class_name": "Zeros", "config": {}}, "moving_variance_initializer": {"class_name": "Ones", "config": {}}, "beta_regularizer": null, "gamma_regularizer": null, "beta_constraint": null, "gamma_constraint": null}, "name": "conv_pw_2_bn", "inbound_nodes": [[["conv_pw_2", 0, 0, {}]]]}, {"class_name": "Activation", "config": {"name": "conv_pw_2_relu", "trainable": true, "dtype": "float32", "activation": "relu6"}, "name": "conv_pw_2_relu", "inbound_nodes": [[["conv_pw_2_bn", 0, 0, {}]]]}, {"class_name": "ZeroPadding2D", "config": {"name": "conv_pad_3", "trainable": true, "dtype": "float32", "padding": [[1, 1], [1, 1]], "data_format": "channels_last"}, "name": "conv_pad_3", "inbound_nodes": [[["conv_pw_2_relu", 0, 0, {}]]]}, {"class_name": "DepthwiseConv2D", "config": {"name": "conv_dw_3", "trainable": true, "dtype": "float32", "kernel_size": [3, 3], "strides": [1, 1], "padding": "valid", "data_format": "channels_last", "dilation_rate": [1, 1], "groups": 1, "activation": "linear", "use_bias": false, "bias_initializer": {"class_name": "Zeros", "config": {}}, "bias_regularizer": null, "activity_regularizer": null, "bias_constraint": null, "depth_multiplier": 1, "depthwise_initializer": {"class_name": "GlorotUniform", "config": {"seed": null}}, "depthwise_regularizer": null, "depthwise_constraint": null}, "name": "conv_dw_3", "inbound_nodes": [[["conv_pad_3", 0, 0, {}]]]}, {"class_name": "BatchNormalization", "config": {"name": "conv_dw_3_bn", "trainable": true, "dtype": "float32", "axis": [3], "momentum": 0.99, "epsilon": 0.001, "center": true, "scale": true, "beta_initializer": {"class_name": "Zeros", "config": {}}, "gamma_initializer": {"class_name": "Ones", "config": {}}, "moving_mean_initializer": {"class_name": "Zeros", "config": {}}, "moving_variance_initializer": {"class_name": "Ones", "config": {}}, "beta_regularizer": null, "gamma_regularizer": null, "beta_constraint": null, "gamma_constraint": null}, "name": "conv_dw_3_bn", "inbound_nodes": [[["conv_dw_3", 0, 0, {}]]]}, {"class_name": "Activation", "config": {"name": "conv_dw_3_relu", "trainable": true, "dtype": "float32", "activation": "relu6"}, "name": "conv_dw_3_relu", "inbound_nodes": [[["conv_dw_3_bn", 0, 0, {}]]]}, {"class_name": "Conv2D", "config": {"name": "conv_pw_3", "trainable": true, "dtype": "float32", "filters": 128, "kernel_size": [1, 1], "strides": [1, 1], "padding": "same", "data_format": "channels_last", "dilation_rate": [1, 1], "groups": 1, "activation": "linear", "use_bias": false, "kernel_initializer": {"class_name": "GlorotUniform", "config": {"seed": null}}, "bias_initializer": {"class_name": "Zeros", "config": {}}, "kernel_regularizer": null, "bias_regularizer": null, "activity_regularizer": null, "kernel_constraint": null, "bias_constraint": null}, "name": "conv_pw_3", "inbound_nodes": [[["conv_dw_3_relu", 0, 0, {}]]]}, {"class_name": "BatchNormalization", "config": {"name": "conv_pw_3_bn", "trainable": true, "dtype": "float32", "axis": [3], "momentum": 0.99, "epsilon": 0.001, "center": true, "scale": true, "beta_initializer": {"class_name": "Zeros", "config": {}}, "gamma_initializer": {"class_name": "Ones", "config": {}}, "moving_mean_initializer": {"class_name": "Zeros", "config": {}}, "moving_variance_initializer": {"class_name": "Ones", "config": {}}, "beta_regularizer": null, "gamma_regularizer": null, "beta_constraint": null, "gamma_constraint": null}, "name": "conv_pw_3_bn", "inbound_nodes": [[["conv_pw_3", 0, 0, {}]]]}, {"class_name": "Activation", "config": {"name": "conv_pw_3_relu", "trainable": true, "dtype": "float32", "activation": "relu6"}, "name": "conv_pw_3_relu", "inbound_nodes": [[["conv_pw_3_bn", 0, 0, {}]]]}, {"class_name": "ZeroPadding2D", "config": {"name": "conv_pad_4", "trainable": true, "dtype": "float32", "padding": [[1, 1], [1, 1]], "data_format": "channels_last"}, "name": "conv_pad_4", "inbound_nodes": [[["conv_pw_3_relu", 0, 0, {}]]]}, {"class_name": "DepthwiseConv2D", "config": {"name": "conv_dw_4", "trainable": true, "dtype": "float32", "kernel_size": [3, 3], "strides": [2, 2], "padding": "valid", "data_format": "channels_last", "dilation_rate": [1, 1], "groups": 1, "activation": "linear", "use_bias": false, "bias_initializer": {"class_name": "Zeros", "config": {}}, "bias_regularizer": null, "activity_regularizer": null, "bias_constraint": null, "depth_multiplier": 1, "depthwise_initializer": {"class_name": "GlorotUniform", "config": {"seed": null}}, "depthwise_regularizer": null, "depthwise_constraint": null}, "name": "conv_dw_4", "inbound_nodes": [[["conv_pad_4", 0, 0, {}]]]}, {"class_name": "BatchNormalization", "config": {"name": "conv_dw_4_bn", "trainable": true, "dtype": "float32", "axis": [3], "momentum": 0.99, "epsilon": 0.001, "center": true, "scale": true, "beta_initializer": {"class_name": "Zeros", "config": {}}, "gamma_initializer": {"class_name": "Ones", "config": {}}, "moving_mean_initializer": {"class_name": "Zeros", "config": {}}, "moving_variance_initializer": {"class_name": "Ones", "config": {}}, "beta_regularizer": null, "gamma_regularizer": null, "beta_constraint": null, "gamma_constraint": null}, "name": "conv_dw_4_bn", "inbound_nodes": [[["conv_dw_4", 0, 0, {}]]]}, {"class_name": "Activation", "config": {"name": "conv_dw_4_relu", "trainable": true, "dtype": "float32", "activation": "relu6"}, "name": "conv_dw_4_relu", "inbound_nodes": [[["conv_dw_4_bn", 0, 0, {}]]]}, {"class_name": "Conv2D", "config": {"name": "conv_pw_4", "trainable": true, "dtype": "float32", "filters": 256, "kernel_size": [1, 1], "strides": [1, 1], "padding": "same", "data_format": "channels_last", "dilation_rate": [1, 1], "groups": 1, "activation": "linear", "use_bias": false, "kernel_initializer": {"class_name": "GlorotUniform", "config": {"seed": null}}, "bias_initializer": {"class_name": "Zeros", "config": {}}, "kernel_regularizer": null, "bias_regularizer": null, "activity_regularizer": null, "kernel_constraint": null, "bias_constraint": null}, "name": "conv_pw_4", "inbound_nodes": [[["conv_dw_4_relu", 0, 0, {}]]]}, {"class_name": "BatchNormalization", "config": {"name": "conv_pw_4_bn", "trainable": true, "dtype": "float32", "axis": [3], "momentum": 0.99, "epsilon": 0.001, "center": true, "scale": true, "beta_initializer": {"class_name": "Zeros", "config": {}}, "gamma_initializer": {"class_name": "Ones", "config": {}}, "moving_mean_initializer": {"class_name": "Zeros", "config": {}}, "moving_variance_initializer": {"class_name": "Ones", "config": {}}, "beta_regularizer": null, "gamma_regularizer": null, "beta_constraint": null, "gamma_constraint": null}, "name": "conv_pw_4_bn", "inbound_nodes": [[["conv_pw_4", 0, 0, {}]]]}, {"class_name": "Activation", "config": {"name": "conv_pw_4_relu", "trainable": true, "dtype": "float32", "activation": "relu6"}, "name": "conv_pw_4_relu", "inbound_nodes": [[["conv_pw_4_bn", 0, 0, {}]]]}, {"class_name": "ZeroPadding2D", "config": {"name": "conv_pad_5", "trainable": true, "dtype": "float32", "padding": [[1, 1], [1, 1]], "data_format": "channels_last"}, "name": "conv_pad_5", "inbound_nodes": [[["conv_pw_4_relu", 0, 0, {}]]]}, {"class_name": "DepthwiseConv2D", "config": {"name": "conv_dw_5", "trainable": true, "dtype": "float32", "kernel_size": [3, 3], "strides": [1, 1], "padding": "valid", "data_format": "channels_last", "dilation_rate": [1, 1], "groups": 1, "activation": "linear", "use_bias": false, "bias_initializer": {"class_name": "Zeros", "config": {}}, "bias_regularizer": null, "activity_regularizer": null, "bias_constraint": null, "depth_multiplier": 1, "depthwise_initializer": {"class_name": "GlorotUniform", "config": {"seed": null}}, "depthwise_regularizer": null, "depthwise_constraint": null}, "name": "conv_dw_5", "inbound_nodes": [[["conv_pad_5", 0, 0, {}]]]}, {"class_name": "BatchNormalization", "config": {"name": "conv_dw_5_bn", "trainable": true, "dtype": "float32", "axis": [3], "momentum": 0.99, "epsilon": 0.001, "center": true, "scale": true, "beta_initializer": {"class_name": "Zeros", "config": {}}, "gamma_initializer": {"class_name": "Ones", "config": {}}, "moving_mean_initializer": {"class_name": "Zeros", "config": {}}, "moving_variance_initializer": {"class_name": "Ones", "config": {}}, "beta_regularizer": null, "gamma_regularizer": null, "beta_constraint": null, "gamma_constraint": null}, "name": "conv_dw_5_bn", "inbound_nodes": [[["conv_dw_5", 0, 0, {}]]]}, {"class_name": "Activation", "config": {"name": "conv_dw_5_relu", "trainable": true, "dtype": "float32", "activation": "relu6"}, "name": "conv_dw_5_relu", "inbound_nodes": [[["conv_dw_5_bn", 0, 0, {}]]]}, {"class_name": "Conv2D", "config": {"name": "conv_pw_5", "trainable": true, "dtype": "float32", "filters": 256, "kernel_size": [1, 1], "strides": [1, 1], "padding": "same", "data_format": "channels_last", "dilation_rate": [1, 1], "groups": 1, "activation": "linear", "use_bias": false, "kernel_initializer": {"class_name": "GlorotUniform", "config": {"seed": null}}, "bias_initializer": {"class_name": "Zeros", "config": {}}, "kernel_regularizer": null, "bias_regularizer": null, "activity_regularizer": null, "kernel_constraint": null, "bias_constraint": null}, "name": "conv_pw_5", "inbound_nodes": [[["conv_dw_5_relu", 0, 0, {}]]]}, {"class_name": "BatchNormalization", "config": {"name": "conv_pw_5_bn", "trainable": true, "dtype": "float32", "axis": [3], "momentum": 0.99, "epsilon": 0.001, "center": true, "scale": true, "beta_initializer": {"class_name": "Zeros", "config": {}}, "gamma_initializer": {"class_name": "Ones", "config": {}}, "moving_mean_initializer": {"class_name": "Zeros", "config": {}}, "moving_variance_initializer": {"class_name": "Ones", "config": {}}, "beta_regularizer": null, "gamma_regularizer": null, "beta_constraint": null, "gamma_constraint": null}, "name": "conv_pw_5_bn", "inbound_nodes": [[["conv_pw_5", 0, 0, {}]]]}, {"class_name": "Activation", "config": {"name": "conv_pw_5_relu", "trainable": true, "dtype": "float32", "activation": "relu6"}, "name": "conv_pw_5_relu", "inbound_nodes": [[["conv_pw_5_bn", 0, 0, {}]]]}, {"class_name": "ZeroPadding2D", "config": {"name": "conv_pad_6", "trainable": true, "dtype": "float32", "padding": [[1, 1], [1, 1]], "data_format": "channels_last"}, "name": "conv_pad_6", "inbound_nodes": [[["conv_pw_5_relu", 0, 0, {}]]]}, {"class_name": "DepthwiseConv2D", "config": {"name": "conv_dw_6", "trainable": true, "dtype": "float32", "kernel_size": [3, 3], "strides": [2, 2], "padding": "valid", "data_format": "channels_last", "dilation_rate": [1, 1], "groups": 1, "activation": "linear", "use_bias": false, "bias_initializer": {"class_name": "Zeros", "config": {}}, "bias_regularizer": null, "activity_regularizer": null, "bias_constraint": null, "depth_multiplier": 1, "depthwise_initializer": {"class_name": "GlorotUniform", "config": {"seed": null}}, "depthwise_regularizer": null, "depthwise_constraint": null}, "name": "conv_dw_6", "inbound_nodes": [[["conv_pad_6", 0, 0, {}]]]}, {"class_name": "BatchNormalization", "config": {"name": "conv_dw_6_bn", "trainable": true, "dtype": "float32", "axis": [3], "momentum": 0.99, "epsilon": 0.001, "center": true, "scale": true, "beta_initializer": {"class_name": "Zeros", "config": {}}, "gamma_initializer": {"class_name": "Ones", "config": {}}, "moving_mean_initializer": {"class_name": "Zeros", "config": {}}, "moving_variance_initializer": {"class_name": "Ones", "config": {}}, "beta_regularizer": null, "gamma_regularizer": null, "beta_constraint": null, "gamma_constraint": null}, "name": "conv_dw_6_bn", "inbound_nodes": [[["conv_dw_6", 0, 0, {}]]]}, {"class_name": "Activation", "config": {"name": "conv_dw_6_relu", "trainable": true, "dtype": "float32", "activation": "relu6"}, "name": "conv_dw_6_relu", "inbound_nodes": [[["conv_dw_6_bn", 0, 0, {}]]]}, {"class_name": "Conv2D", "config": {"name": "conv_pw_6", "trainable": true, "dtype": "float32", "filters": 512, "kernel_size": [1, 1], "strides": [1, 1], "padding": "same", "data_format": "channels_last", "dilation_rate": [1, 1], "groups": 1, "activation": "linear", "use_bias": false, "kernel_initializer": {"class_name": "GlorotUniform", "config": {"seed": null}}, "bias_initializer": {"class_name": "Zeros", "config": {}}, "kernel_regularizer": null, "bias_regularizer": null, "activity_regularizer": null, "kernel_constraint": null, "bias_constraint": null}, "name": "conv_pw_6", "inbound_nodes": [[["conv_dw_6_relu", 0, 0, {}]]]}, {"class_name": "BatchNormalization", "config": {"name": "conv_pw_6_bn", "trainable": true, "dtype": "float32", "axis": [3], "momentum": 0.99, "epsilon": 0.001, "center": true, "scale": true, "beta_initializer": {"class_name": "Zeros", "config": {}}, "gamma_initializer": {"class_name": "Ones", "config": {}}, "moving_mean_initializer": {"class_name": "Zeros", "config": {}}, "moving_variance_initializer": {"class_name": "Ones", "config": {}}, "beta_regularizer": null, "gamma_regularizer": null, "beta_constraint": null, "gamma_constraint": null}, "name": "conv_pw_6_bn", "inbound_nodes": [[["conv_pw_6", 0, 0, {}]]]}, {"class_name": "Activation", "config": {"name": "conv_pw_6_relu", "trainable": true, "dtype": "float32", "activation": "relu6"}, "name": "conv_pw_6_relu", "inbound_nodes": [[["conv_pw_6_bn", 0, 0, {}]]]}, {"class_name": "ZeroPadding2D", "config": {"name": "conv_pad_7", "trainable": true, "dtype": "float32", "padding": [[1, 1], [1, 1]], "data_format": "channels_last"}, "name": "conv_pad_7", "inbound_nodes": [[["conv_pw_6_relu", 0, 0, {}]]]}, {"class_name": "DepthwiseConv2D", "config": {"name": "conv_dw_7", "trainable": true, "dtype": "float32", "kernel_size": [3, 3], "strides": [1, 1], "padding": "valid", "data_format": "channels_last", "dilation_rate": [1, 1], "groups": 1, "activation": "linear", "use_bias": false, "bias_initializer": {"class_name": "Zeros", "config": {}}, "bias_regularizer": null, "activity_regularizer": null, "bias_constraint": null, "depth_multiplier": 1, "depthwise_initializer": {"class_name": "GlorotUniform", "config": {"seed": null}}, "depthwise_regularizer": null, "depthwise_constraint": null}, "name": "conv_dw_7", "inbound_nodes": [[["conv_pad_7", 0, 0, {}]]]}, {"class_name": "BatchNormalization", "config": {"name": "conv_dw_7_bn", "trainable": true, "dtype": "float32", "axis": [3], "momentum": 0.99, "epsilon": 0.001, "center": true, "scale": true, "beta_initializer": {"class_name": "Zeros", "config": {}}, "gamma_initializer": {"class_name": "Ones", "config": {}}, "moving_mean_initializer": {"class_name": "Zeros", "config": {}}, "moving_variance_initializer": {"class_name": "Ones", "config": {}}, "beta_regularizer": null, "gamma_regularizer": null, "beta_constraint": null, "gamma_constraint": null}, "name": "conv_dw_7_bn", "inbound_nodes": [[["conv_dw_7", 0, 0, {}]]]}, {"class_name": "Activation", "config": {"name": "conv_dw_7_relu", "trainable": true, "dtype": "float32", "activation": "relu6"}, "name": "conv_dw_7_relu", "inbound_nodes": [[["conv_dw_7_bn", 0, 0, {}]]]}, {"class_name": "Conv2D", "config": {"name": "conv_pw_7", "trainable": true, "dtype": "float32", "filters": 512, "kernel_size": [1, 1], "strides": [1, 1], "padding": "same", "data_format": "channels_last", "dilation_rate": [1, 1], "groups": 1, "activation": "linear", "use_bias": false, "kernel_initializer": {"class_name": "GlorotUniform", "config": {"seed": null}}, "bias_initializer": {"class_name": "Zeros", "config": {}}, "kernel_regularizer": null, "bias_regularizer": null, "activity_regularizer": null, "kernel_constraint": null, "bias_constraint": null}, "name": "conv_pw_7", "inbound_nodes": [[["conv_dw_7_relu", 0, 0, {}]]]}, {"class_name": "BatchNormalization", "config": {"name": "conv_pw_7_bn", "trainable": true, "dtype": "float32", "axis": [3], "momentum": 0.99, "epsilon": 0.001, "center": true, "scale": true, "beta_initializer": {"class_name": "Zeros", "config": {}}, "gamma_initializer": {"class_name": "Ones", "config": {}}, "moving_mean_initializer": {"class_name": "Zeros", "config": {}}, "moving_variance_initializer": {"class_name": "Ones", "config": {}}, "beta_regularizer": null, "gamma_regularizer": null, "beta_constraint": null, "gamma_constraint": null}, "name": "conv_pw_7_bn", "inbound_nodes": [[["conv_pw_7", 0, 0, {}]]]}, {"class_name": "Activation", "config": {"name": "conv_pw_7_relu", "trainable": true, "dtype": "float32", "activation": "relu6"}, "name": "conv_pw_7_relu", "inbound_nodes": [[["conv_pw_7_bn", 0, 0, {}]]]}, {"class_name": "ZeroPadding2D", "config": {"name": "conv_pad_8", "trainable": true, "dtype": "float32", "padding": [[1, 1], [1, 1]], "data_format": "channels_last"}, "name": "conv_pad_8", "inbound_nodes": [[["conv_pw_7_relu", 0, 0, {}]]]}, {"class_name": "DepthwiseConv2D", "config": {"name": "conv_dw_8", "trainable": true, "dtype": "float32", "kernel_size": [3, 3], "strides": [1, 1], "padding": "valid", "data_format": "channels_last", "dilation_rate": [1, 1], "groups": 1, "activation": "linear", "use_bias": false, "bias_initializer": {"class_name": "Zeros", "config": {}}, "bias_regularizer": null, "activity_regularizer": null, "bias_constraint": null, "depth_multiplier": 1, "depthwise_initializer": {"class_name": "GlorotUniform", "config": {"seed": null}}, "depthwise_regularizer": null, "depthwise_constraint": null}, "name": "conv_dw_8", "inbound_nodes": [[["conv_pad_8", 0, 0, {}]]]}, {"class_name": "BatchNormalization", "config": {"name": "conv_dw_8_bn", "trainable": true, "dtype": "float32", "axis": [3], "momentum": 0.99, "epsilon": 0.001, "center": true, "scale": true, "beta_initializer": {"class_name": "Zeros", "config": {}}, "gamma_initializer": {"class_name": "Ones", "config": {}}, "moving_mean_initializer": {"class_name": "Zeros", "config": {}}, "moving_variance_initializer": {"class_name": "Ones", "config": {}}, "beta_regularizer": null, "gamma_regularizer": null, "beta_constraint": null, "gamma_constraint": null}, "name": "conv_dw_8_bn", "inbound_nodes": [[["conv_dw_8", 0, 0, {}]]]}, {"class_name": "Activation", "config": {"name": "conv_dw_8_relu", "trainable": true, "dtype": "float32", "activation": "relu6"}, "name": "conv_dw_8_relu", "inbound_nodes": [[["conv_dw_8_bn", 0, 0, {}]]]}, {"class_name": "Conv2D", "config": {"name": "conv_pw_8", "trainable": true, "dtype": "float32", "filters": 512, "kernel_size": [1, 1], "strides": [1, 1], "padding": "same", "data_format": "channels_last", "dilation_rate": [1, 1], "groups": 1, "activation": "linear", "use_bias": false, "kernel_initializer": {"class_name": "GlorotUniform", "config": {"seed": null}}, "bias_initializer": {"class_name": "Zeros", "config": {}}, "kernel_regularizer": null, "bias_regularizer": null, "activity_regularizer": null, "kernel_constraint": null, "bias_constraint": null}, "name": "conv_pw_8", "inbound_nodes": [[["conv_dw_8_relu", 0, 0, {}]]]}, {"class_name": "BatchNormalization", "config": {"name": "conv_pw_8_bn", "trainable": true, "dtype": "float32", "axis": [3], "momentum": 0.99, "epsilon": 0.001, "center": true, "scale": true, "beta_initializer": {"class_name": "Zeros", "config": {}}, "gamma_initializer": {"class_name": "Ones", "config": {}}, "moving_mean_initializer": {"class_name": "Zeros", "config": {}}, "moving_variance_initializer": {"class_name": "Ones", "config": {}}, "beta_regularizer": null, "gamma_regularizer": null, "beta_constraint": null, "gamma_constraint": null}, "name": "conv_pw_8_bn", "inbound_nodes": [[["conv_pw_8", 0, 0, {}]]]}, {"class_name": "Activation", "config": {"name": "conv_pw_8_relu", "trainable": true, "dtype": "float32", "activation": "relu6"}, "name": "conv_pw_8_relu", "inbound_nodes": [[["conv_pw_8_bn", 0, 0, {}]]]}, {"class_name": "ZeroPadding2D", "config": {"name": "conv_pad_9", "trainable": true, "dtype": "float32", "padding": [[1, 1], [1, 1]], "data_format": "channels_last"}, "name": "conv_pad_9", "inbound_nodes": [[["conv_pw_8_relu", 0, 0, {}]]]}, {"class_name": "DepthwiseConv2D", "config": {"name": "conv_dw_9", "trainable": true, "dtype": "float32", "kernel_size": [3, 3], "strides": [1, 1], "padding": "valid", "data_format": "channels_last", "dilation_rate": [1, 1], "groups": 1, "activation": "linear", "use_bias": false, "bias_initializer": {"class_name": "Zeros", "config": {}}, "bias_regularizer": null, "activity_regularizer": null, "bias_constraint": null, "depth_multiplier": 1, "depthwise_initializer": {"class_name": "GlorotUniform", "config": {"seed": null}}, "depthwise_regularizer": null, "depthwise_constraint": null}, "name": "conv_dw_9", "inbound_nodes": [[["conv_pad_9", 0, 0, {}]]]}, {"class_name": "BatchNormalization", "config": {"name": "conv_dw_9_bn", "trainable": true, "dtype": "float32", "axis": [3], "momentum": 0.99, "epsilon": 0.001, "center": true, "scale": true, "beta_initializer": {"class_name": "Zeros", "config": {}}, "gamma_initializer": {"class_name": "Ones", "config": {}}, "moving_mean_initializer": {"class_name": "Zeros", "config": {}}, "moving_variance_initializer": {"class_name": "Ones", "config": {}}, "beta_regularizer": null, "gamma_regularizer": null, "beta_constraint": null, "gamma_constraint": null}, "name": "conv_dw_9_bn", "inbound_nodes": [[["conv_dw_9", 0, 0, {}]]]}, {"class_name": "Activation", "config": {"name": "conv_dw_9_relu", "trainable": true, "dtype": "float32", "activation": "relu6"}, "name": "conv_dw_9_relu", "inbound_nodes": [[["conv_dw_9_bn", 0, 0, {}]]]}, {"class_name": "Conv2D", "config": {"name": "conv_pw_9", "trainable": true, "dtype": "float32", "filters": 512, "kernel_size": [1, 1], "strides": [1, 1], "padding": "same", "data_format": "channels_last", "dilation_rate": [1, 1], "groups": 1, "activation": "linear", "use_bias": false, "kernel_initializer": {"class_name": "GlorotUniform", "config": {"seed": null}}, "bias_initializer": {"class_name": "Zeros", "config": {}}, "kernel_regularizer": null, "bias_regularizer": null, "activity_regularizer": null, "kernel_constraint": null, "bias_constraint": null}, "name": "conv_pw_9", "inbound_nodes": [[["conv_dw_9_relu", 0, 0, {}]]]}, {"class_name": "BatchNormalization", "config": {"name": "conv_pw_9_bn", "trainable": true, "dtype": "float32", "axis": [3], "momentum": 0.99, "epsilon": 0.001, "center": true, "scale": true, "beta_initializer": {"class_name": "Zeros", "config": {}}, "gamma_initializer": {"class_name": "Ones", "config": {}}, "moving_mean_initializer": {"class_name": "Zeros", "config": {}}, "moving_variance_initializer": {"class_name": "Ones", "config": {}}, "beta_regularizer": null, "gamma_regularizer": null, "beta_constraint": null, "gamma_constraint": null}, "name": "conv_pw_9_bn", "inbound_nodes": [[["conv_pw_9", 0, 0, {}]]]}, {"class_name": "Activation", "config": {"name": "conv_pw_9_relu", "trainable": true, "dtype": "float32", "activation": "relu6"}, "name": "conv_pw_9_relu", "inbound_nodes": [[["conv_pw_9_bn", 0, 0, {}]]]}, {"class_name": "ZeroPadding2D", "config": {"name": "conv_pad_10", "trainable": true, "dtype": "float32", "padding": [[1, 1], [1, 1]], "data_format": "channels_last"}, "name": "conv_pad_10", "inbound_nodes": [[["conv_pw_9_relu", 0, 0, {}]]]}, {"class_name": "DepthwiseConv2D", "config": {"name": "conv_dw_10", "trainable": true, "dtype": "float32", "kernel_size": [3, 3], "strides": [1, 1], "padding": "valid", "data_format": "channels_last", "dilation_rate": [1, 1], "groups": 1, "activation": "linear", "use_bias": false, "bias_initializer": {"class_name": "Zeros", "config": {}}, "bias_regularizer": null, "activity_regularizer": null, "bias_constraint": null, "depth_multiplier": 1, "depthwise_initializer": {"class_name": "GlorotUniform", "config": {"seed": null}}, "depthwise_regularizer": null, "depthwise_constraint": null}, "name": "conv_dw_10", "inbound_nodes": [[["conv_pad_10", 0, 0, {}]]]}, {"class_name": "BatchNormalization", "config": {"name": "conv_dw_10_bn", "trainable": true, "dtype": "float32", "axis": [3], "momentum": 0.99, "epsilon": 0.001, "center": true, "scale": true, "beta_initializer": {"class_name": "Zeros", "config": {}}, "gamma_initializer": {"class_name": "Ones", "config": {}}, "moving_mean_initializer": {"class_name": "Zeros", "config": {}}, "moving_variance_initializer": {"class_name": "Ones", "config": {}}, "beta_regularizer": null, "gamma_regularizer": null, "beta_constraint": null, "gamma_constraint": null}, "name": "conv_dw_10_bn", "inbound_nodes": [[["conv_dw_10", 0, 0, {}]]]}, {"class_name": "Activation", "config": {"name": "conv_dw_10_relu", "trainable": true, "dtype": "float32", "activation": "relu6"}, "name": "conv_dw_10_relu", "inbound_nodes": [[["conv_dw_10_bn", 0, 0, {}]]]}, {"class_name": "Conv2D", "config": {"name": "conv_pw_10", "trainable": true, "dtype": "float32", "filters": 512, "kernel_size": [1, 1], "strides": [1, 1], "padding": "same", "data_format": "channels_last", "dilation_rate": [1, 1], "groups": 1, "activation": "linear", "use_bias": false, "kernel_initializer": {"class_name": "GlorotUniform", "config": {"seed": null}}, "bias_initializer": {"class_name": "Zeros", "config": {}}, "kernel_regularizer": null, "bias_regularizer": null, "activity_regularizer": null, "kernel_constraint": null, "bias_constraint": null}, "name": "conv_pw_10", "inbound_nodes": [[["conv_dw_10_relu", 0, 0, {}]]]}, {"class_name": "BatchNormalization", "config": {"name": "conv_pw_10_bn", "trainable": true, "dtype": "float32", "axis": [3], "momentum": 0.99, "epsilon": 0.001, "center": true, "scale": true, "beta_initializer": {"class_name": "Zeros", "config": {}}, "gamma_initializer": {"class_name": "Ones", "config": {}}, "moving_mean_initializer": {"class_name": "Zeros", "config": {}}, "moving_variance_initializer": {"class_name": "Ones", "config": {}}, "beta_regularizer": null, "gamma_regularizer": null, "beta_constraint": null, "gamma_constraint": null}, "name": "conv_pw_10_bn", "inbound_nodes": [[["conv_pw_10", 0, 0, {}]]]}, {"class_name": "Activation", "config": {"name": "conv_pw_10_relu", "trainable": true, "dtype": "float32", "activation": "relu6"}, "name": "conv_pw_10_relu", "inbound_nodes": [[["conv_pw_10_bn", 0, 0, {}]]]}, {"class_name": "ZeroPadding2D", "config": {"name": "conv_pad_11", "trainable": true, "dtype": "float32", "padding": [[1, 1], [1, 1]], "data_format": "channels_last"}, "name": "conv_pad_11", "inbound_nodes": [[["conv_pw_10_relu", 0, 0, {}]]]}, {"class_name": "DepthwiseConv2D", "config": {"name": "conv_dw_11", "trainable": true, "dtype": "float32", "kernel_size": [3, 3], "strides": [1, 1], "padding": "valid", "data_format": "channels_last", "dilation_rate": [1, 1], "groups": 1, "activation": "linear", "use_bias": false, "bias_initializer": {"class_name": "Zeros", "config": {}}, "bias_regularizer": null, "activity_regularizer": null, "bias_constraint": null, "depth_multiplier": 1, "depthwise_initializer": {"class_name": "GlorotUniform", "config": {"seed": null}}, "depthwise_regularizer": null, "depthwise_constraint": null}, "name": "conv_dw_11", "inbound_nodes": [[["conv_pad_11", 0, 0, {}]]]}, {"class_name": "BatchNormalization", "config": {"name": "conv_dw_11_bn", "trainable": true, "dtype": "float32", "axis": [3], "momentum": 0.99, "epsilon": 0.001, "center": true, "scale": true, "beta_initializer": {"class_name": "Zeros", "config": {}}, "gamma_initializer": {"class_name": "Ones", "config": {}}, "moving_mean_initializer": {"class_name": "Zeros", "config": {}}, "moving_variance_initializer": {"class_name": "Ones", "config": {}}, "beta_regularizer": null, "gamma_regularizer": null, "beta_constraint": null, "gamma_constraint": null}, "name": "conv_dw_11_bn", "inbound_nodes": [[["conv_dw_11", 0, 0, {}]]]}, {"class_name": "Activation", "config": {"name": "conv_dw_11_relu", "trainable": true, "dtype": "float32", "activation": "relu6"}, "name": "conv_dw_11_relu", "inbound_nodes": [[["conv_dw_11_bn", 0, 0, {}]]]}, {"class_name": "Conv2D", "config": {"name": "conv_pw_11", "trainable": true, "dtype": "float32", "filters": 512, "kernel_size": [1, 1], "strides": [1, 1], "padding": "same", "data_format": "channels_last", "dilation_rate": [1, 1], "groups": 1, "activation": "linear", "use_bias": false, "kernel_initializer": {"class_name": "GlorotUniform", "config": {"seed": null}}, "bias_initializer": {"class_name": "Zeros", "config": {}}, "kernel_regularizer": null, "bias_regularizer": null, "activity_regularizer": null, "kernel_constraint": null, "bias_constraint": null}, "name": "conv_pw_11", "inbound_nodes": [[["conv_dw_11_relu", 0, 0, {}]]]}, {"class_name": "BatchNormalization", "config": {"name": "conv_pw_11_bn", "trainable": true, "dtype": "float32", "axis": [3], "momentum": 0.99, "epsilon": 0.001, "center": true, "scale": true, "beta_initializer": {"class_name": "Zeros", "config": {}}, "gamma_initializer": {"class_name": "Ones", "config": {}}, "moving_mean_initializer": {"class_name": "Zeros", "config": {}}, "moving_variance_initializer": {"class_name": "Ones", "config": {}}, "beta_regularizer": null, "gamma_regularizer": null, "beta_constraint": null, "gamma_constraint": null}, "name": "conv_pw_11_bn", "inbound_nodes": [[["conv_pw_11", 0, 0, {}]]]}, {"class_name": "Activation", "config": {"name": "conv_pw_11_relu", "trainable": true, "dtype": "float32", "activation": "relu6"}, "name": "conv_pw_11_relu", "inbound_nodes": [[["conv_pw_11_bn", 0, 0, {}]]]}, {"class_name": "ZeroPadding2D", "config": {"name": "zero_padding2d", "trainable": true, "dtype": "float32", "padding": [[1, 1], [1, 1]], "data_format": "channels_last"}, "name": "zero_padding2d", "inbound_nodes": [[["conv_pw_11_relu", 0, 0, {}]]]}, {"class_name": "Conv2D", "config": {"name": "conv2d", "trainable": true, "dtype": "float32", "filters": 512, "kernel_size": [3, 3], "strides": [1, 1], "padding": "valid", "data_format": "channels_last", "dilation_rate": [1, 1], "groups": 1, "activation": "linear", "use_bias": true, "kernel_initializer": {"class_name": "GlorotUniform", "config": {"seed": null}}, "bias_initializer": {"class_name": "Zeros", "config": {}}, "kernel_regularizer": null, "bias_regularizer": null, "activity_regularizer": null, "kernel_constraint": null, "bias_constraint": null}, "name": "conv2d", "inbound_nodes": [[["zero_padding2d", 0, 0, {}]]]}, {"class_name": "BatchNormalization", "config": {"name": "batch_normalization", "trainable": true, "dtype": "float32", "axis": [3], "momentum": 0.99, "epsilon": 0.001, "center": true, "scale": true, "beta_initializer": {"class_name": "Zeros", "config": {}}, "gamma_initializer": {"class_name": "Ones", "config": {}}, "moving_mean_initializer": {"class_name": "Zeros", "config": {}}, "moving_variance_initializer": {"class_name": "Ones", "config": {}}, "beta_regularizer": null, "gamma_regularizer": null, "beta_constraint": null, "gamma_constraint": null}, "name": "batch_normalization", "inbound_nodes": [[["conv2d", 0, 0, {}]]]}, {"class_name": "UpSampling2D", "config": {"name": "up_sampling2d", "trainable": true, "dtype": "float32", "size": [2, 2], "data_format": "channels_last", "interpolation": "nearest"}, "name": "up_sampling2d", "inbound_nodes": [[["batch_normalization", 0, 0, {}]]]}, {"class_name": "ZeroPadding2D", "config": {"name": "zero_padding2d_1", "trainable": true, "dtype": "float32", "padding": [[1, 1], [1, 1]], "data_format": "channels_last"}, "name": "zero_padding2d_1", "inbound_nodes": [[["up_sampling2d", 0, 0, {}]]]}, {"class_name": "Conv2D", "config": {"name": "conv2d_1", "trainable": true, "dtype": "float32", "filters": 256, "kernel_size": [3, 3], "strides": [1, 1], "padding": "valid", "data_format": "channels_last", "dilation_rate": [1, 1], "groups": 1, "activation": "linear", "use_bias": true, "kernel_initializer": {"class_name": "GlorotUniform", "config": {"seed": null}}, "bias_initializer": {"class_name": "Zeros", "config": {}}, "kernel_regularizer": null, "bias_regularizer": null, "activity_regularizer": null, "kernel_constraint": null, "bias_constraint": null}, "name": "conv2d_1", "inbound_nodes": [[["zero_padding2d_1", 0, 0, {}]]]}, {"class_name": "BatchNormalization", "config": {"name": "batch_normalization_1", "trainable": true, "dtype": "float32", "axis": [3], "momentum": 0.99, "epsilon": 0.001, "center": true, "scale": true, "beta_initializer": {"class_name": "Zeros", "config": {}}, "gamma_initializer": {"class_name": "Ones", "config": {}}, "moving_mean_initializer": {"class_name": "Zeros", "config": {}}, "moving_variance_initializer": {"class_name": "Ones", "config": {}}, "beta_regularizer": null, "gamma_regularizer": null, "beta_constraint": null, "gamma_constraint": null}, "name": "batch_normalization_1", "inbound_nodes": [[["conv2d_1", 0, 0, {}]]]}, {"class_name": "UpSampling2D", "config": {"name": "up_sampling2d_1", "trainable": true, "dtype": "float32", "size": [2, 2], "data_format": "channels_last", "interpolation": "nearest"}, "name": "up_sampling2d_1", "inbound_nodes": [[["batch_normalization_1", 0, 0, {}]]]}, {"class_name": "ZeroPadding2D", "config": {"name": "zero_padding2d_2", "trainable": true, "dtype": "float32", "padding": [[1, 1], [1, 1]], "data_format": "channels_last"}, "name": "zero_padding2d_2", "inbound_nodes": [[["up_sampling2d_1", 0, 0, {}]]]}, {"class_name": "Conv2D", "config": {"name": "conv2d_2", "trainable": true, "dtype": "float32", "filters": 128, "kernel_size": [3, 3], "strides": [1, 1], "padding": "valid", "data_format": "channels_last", "dilation_rate": [1, 1], "groups": 1, "activation": "linear", "use_bias": true, "kernel_initializer": {"class_name": "GlorotUniform", "config": {"seed": null}}, "bias_initializer": {"class_name": "Zeros", "config": {}}, "kernel_regularizer": null, "bias_regularizer": null, "activity_regularizer": null, "kernel_constraint": null, "bias_constraint": null}, "name": "conv2d_2", "inbound_nodes": [[["zero_padding2d_2", 0, 0, {}]]]}, {"class_name": "BatchNormalization", "config": {"name": "batch_normalization_2", "trainable": true, "dtype": "float32", "axis": [3], "momentum": 0.99, "epsilon": 0.001, "center": true, "scale": true, "beta_initializer": {"class_name": "Zeros", "config": {}}, "gamma_initializer": {"class_name": "Ones", "config": {}}, "moving_mean_initializer": {"class_name": "Zeros", "config": {}}, "moving_variance_initializer": {"class_name": "Ones", "config": {}}, "beta_regularizer": null, "gamma_regularizer": null, "beta_constraint": null, "gamma_constraint": null}, "name": "batch_normalization_2", "inbound_nodes": [[["conv2d_2", 0, 0, {}]]]}, {"class_name": "UpSampling2D", "config": {"name": "up_sampling2d_2", "trainable": true, "dtype": "float32", "size": [2, 2], "data_format": "channels_last", "interpolation": "nearest"}, "name": "up_sampling2d_2", "inbound_nodes": [[["batch_normalization_2", 0, 0, {}]]]}, {"class_name": "ZeroPadding2D", "config": {"name": "zero_padding2d_3", "trainable": true, "dtype": "float32", "padding": [[1, 1], [1, 1]], "data_format": "channels_last"}, "name": "zero_padding2d_3", "inbound_nodes": [[["up_sampling2d_2", 0, 0, {}]]]}, {"class_name": "Conv2D", "config": {"name": "seg_feats", "trainable": true, "dtype": "float32", "filters": 64, "kernel_size": [3, 3], "strides": [1, 1], "padding": "valid", "data_format": "channels_last", "dilation_rate": [1, 1], "groups": 1, "activation": "linear", "use_bias": true, "kernel_initializer": {"class_name": "GlorotUniform", "config": {"seed": null}}, "bias_initializer": {"class_name": "Zeros", "config": {}}, "kernel_regularizer": null, "bias_regularizer": null, "activity_regularizer": null, "kernel_constraint": null, "bias_constraint": null}, "name": "seg_feats", "inbound_nodes": [[["zero_padding2d_3", 0, 0, {}]]]}, {"class_name": "BatchNormalization", "config": {"name": "batch_normalization_3", "trainable": true, "dtype": "float32", "axis": [3], "momentum": 0.99, "epsilon": 0.001, "center": true, "scale": true, "beta_initializer": {"class_name": "Zeros", "config": {}}, "gamma_initializer": {"class_name": "Ones", "config": {}}, "moving_mean_initializer": {"class_name": "Zeros", "config": {}}, "moving_variance_initializer": {"class_name": "Ones", "config": {}}, "beta_regularizer": null, "gamma_regularizer": null, "beta_constraint": null, "gamma_constraint": null}, "name": "batch_normalization_3", "inbound_nodes": [[["seg_feats", 0, 0, {}]]]}, {"class_name": "Conv2D", "config": {"name": "conv2d_3", "trainable": true, "dtype": "float32", "filters": 2, "kernel_size": [3, 3], "strides": [1, 1], "padding": "same", "data_format": "channels_last", "dilation_rate": [1, 1], "groups": 1, "activation": "linear", "use_bias": true, "kernel_initializer": {"class_name": "GlorotUniform", "config": {"seed": null}}, "bias_initializer": {"class_name": "Zeros", "config": {}}, "kernel_regularizer": null, "bias_regularizer": null, "activity_regularizer": null, "kernel_constraint": null, "bias_constraint": null}, "name": "conv2d_3", "inbound_nodes": [[["batch_normalization_3", 0, 0, {}]]]}, {"class_name": "Reshape", "config": {"name": "reshape", "trainable": true, "dtype": "float32", "target_shape": [65536, -1]}, "name": "reshape", "inbound_nodes": [[["conv2d_3", 0, 0, {}]]]}, {"class_name": "Activation", "config": {"name": "activation", "trainable": true, "dtype": "float32", "activation": "softmax"}, "name": "activation", "inbound_nodes": [[["reshape", 0, 0, {}]]]}], "input_layers": [["input_1", 0, 0]], "output_layers": [["activation", 0, 0]]}}, "training_config": {"loss": "categorical_crossentropy", "metrics": [[{"class_name": "MeanMetricWrapper", "config": {"name": "accuracy", "dtype": "float32", "fn": "categorical_accuracy"}}]], "weighted_metrics": null, "loss_weights": null, "optimizer_config": {"class_name": "Custom>Adam", "config": {"name": "Adam", "weight_decay": null, "clipnorm": null, "global_clipnorm": null, "clipvalue": null, "use_ema": false, "ema_momentum": 0.99, "ema_overwrite_frequency": null, "jit_compile": true, "is_legacy_optimizer": false, "learning_rate": 0.0010000000474974513, "beta_1": 0.9, "beta_2": 0.999, "epsilon": 1e-07, "amsgrad": false}}}}, "weightsManifest": [{"paths": ["group1-shard1of2.bin", "group1-shard2of2.bin"], "weights": [{"name": "batch_normalization/gamma", "shape": [512], "dtype": "float32", "quantization": {"dtype": "uint8", "min": 0.8827617764472961, "scale": 0.0014370892562118231, "original_dtype": "float32"}}, {"name": "batch_normalization/beta", "shape": [512], "dtype": "float32", "quantization": {"dtype": "uint8", "min": -0.11938438392152972, "scale": 0.0009627772896897559, "original_dtype": "float32"}}, {"name": "batch_normalization/moving_mean", "shape": [512], "dtype": "float32", "quantization": {"dtype": "uint8", "min": -6.533655391019933, "scale": 0.04949738932590859, "original_dtype": "float32"}}, {"name": "batch_normalization/moving_variance", "shape": [512], "dtype": "float32", "quantization": {"dtype": "uint8", "min": 3.40675687789917, "scale": 1.0478553192288267, "original_dtype": "float32"}}, {"name": "batch_normalization_1/gamma", "shape": [256], "dtype": "float32", "quantization": {"dtype": "uint8", "min": 0.9690297245979309, "scale": 0.0005702306242550121, "original_dtype": "float32"}}, {"name": "batch_normalization_1/beta", "shape": [256], "dtype": "float32", "quantization": {"dtype": "uint8", "min": -0.2766795616523892, "scale": 0.002231286787519268, "original_dtype": "float32"}}, {"name": "batch_normalization_1/moving_mean", "shape": [256], "dtype": "float32", "quantization": {"dtype": "uint8", "min": -2.952384569130692, "scale": 0.020221812117333506, "original_dtype": "float32"}}, {"name": "batch_normalization_1/moving_variance", "shape": [256], "dtype": "float32", "quantization": {"dtype": "uint8", "min": 27.58710479736328, "scale": 6.311751990224801, "original_dtype": "float32"}}, {"name": "batch_normalization_2/gamma", "shape": [128], "dtype": "float32", "quantization": {"dtype": "uint8", "min": 0.9717357158660889, "scale": 0.0001802818447935815, "original_dtype": "float32"}}, {"name": "batch_normalization_2/beta", "shape": [128], "dtype": "float32", "quantization": {"dtype": "uint8", "min": -0.6283083537045646, "scale": 0.005108197997598087, "original_dtype": "float32"}}, {"name": "batch_normalization_2/moving_mean", "shape": [128], "dtype": "float32", "quantization": {"dtype": "uint8", "min": -2.9358970408346137, "scale": 0.032262604844336414, "original_dtype": "float32"}}, {"name": "batch_normalization_2/moving_variance", "shape": [128], "dtype": "float32", "quantization": {"dtype": "uint8", "min": 8.800604820251465, "scale": 5.3524784798715626, "original_dtype": "float32"}}, {"name": "batch_normalization_3/gamma", "shape": [64], "dtype": "float32", "quantization": {"dtype": "uint8", "min": 0.929973840713501, "scale": 0.0006811113918528838, "original_dtype": "float32"}}, {"name": "batch_normalization_3/beta", "shape": [64], "dtype": "float32", "quantization": {"dtype": "uint8", "min": -0.2381196372649249, "scale": 0.0017638491649253696, "original_dtype": "float32"}}, {"name": "batch_normalization_3/moving_mean", "shape": [64], "dtype": "float32", "quantization": {"dtype": "uint8", "min": -3.6231986999511716, "scale": 0.026641166911405674, "original_dtype": "float32"}}, {"name": "batch_normalization_3/moving_variance", "shape": [64], "dtype": "float32", "quantization": {"dtype": "uint8", "min": 9.342424392700195, "scale": 1.302105286542107, "original_dtype": "float32"}}, {"name": "conv1/kernel", "shape": [3, 3, 3, 32], "dtype": "float32", "quantization": {"dtype": "uint8", "min": -0.8825256340643939, "scale": 0.006259047050102084, "original_dtype": "float32"}}, {"name": "conv1_bn/gamma", "shape": [32], "dtype": "float32", "quantization": {"dtype": "uint8", "min": -0.23013814489046733, "scale": 0.013537537934733373, "original_dtype": "float32"}}, {"name": "conv1_bn/beta", "shape": [32], "dtype": "float32", "quantization": {"dtype": "uint8", "min": -2.8719419367173136, "scale": 0.024758120144114774, "original_dtype": "float32"}}, {"name": "conv1_bn/moving_mean", "shape": [32], "dtype": "float32", "quantization": {"dtype": "uint8", "min": -46.776842244466145, "scale": 0.3490809122721354, "original_dtype": "float32"}}, {"name": "conv1_bn/moving_variance", "shape": [32], "dtype": "float32", "quantization": {"dtype": "uint8", "min": 4.101657462288016e-21, "scale": 163.0157781862745, "original_dtype": "float32"}}, {"name": "conv2d/kernel", "shape": [3, 3, 512, 512], "dtype": "float32", "quantization": {"dtype": "uint8", "min": -0.26752581140574283, "scale": 0.0024101424450967824, "original_dtype": "float32"}}, {"name": "conv2d/bias", "shape": [512], "dtype": "float32", "quantization": {"dtype": "uint8", "min": -1.1341204449041364e-05, "scale": 7.875836422945391e-08, "original_dtype": "float32"}}, {"name": "conv2d_1/kernel", "shape": [3, 3, 512, 256], "dtype": "float32", "quantization": {"dtype": "uint8", "min": -0.16985132998111202, "scale": 0.0013697687901702582, "original_dtype": "float32"}}, {"name": "conv2d_1/bias", "shape": [256], "dtype": "float32", "quantization": {"dtype": "uint8", "min": -3.975866299215875e-06, "scale": 3.035012442149523e-08, "original_dtype": "float32"}}, {"name": "conv2d_2/kernel", "shape": [3, 3, 256, 128], "dtype": "float32", "quantization": {"dtype": "uint8", "min": -0.090565892644957, "scale": 0.0007303701019754597, "original_dtype": "float32"}}, {"name": "conv2d_2/bias", "shape": [128], "dtype": "float32", "quantization": {"dtype": "uint8", "min": -6.501165681387932e-06, "scale": 6.436797704344487e-08, "original_dtype": "float32"}}, {"name": "conv2d_3/kernel", "shape": [3, 3, 64, 2], "dtype": "float32", "quantization": {"dtype": "uint8", "min": -0.1277555070379201, "scale": 0.000975232878152062, "original_dtype": "float32"}}, {"name": "conv2d_3/bias", "shape": [2], "dtype": "float32", "quantization": {"dtype": "uint8", "min": -0.11717066256438985, "scale": 0.0009226036422392901, "original_dtype": "float32"}}, {"name": "conv_dw_1/depthwise_kernel", "shape": [3, 3, 32, 1], "dtype": "float32", "quantization": {"dtype": "uint8", "min": -30.620524425132604, "scale": 0.21412954143449373, "original_dtype": "float32"}}, {"name": "conv_dw_10/depthwise_kernel", "shape": [3, 3, 512, 1], "dtype": "float32", "quantization": {"dtype": "uint8", "min": -5.062576682894838, "scale": 0.04082723131366805, "original_dtype": "float32"}}, {"name": "conv_dw_10_bn/gamma", "shape": [512], "dtype": "float32", "quantization": {"dtype": "uint8", "min": 0.32428911328315735, "scale": 0.00917545662206762, "original_dtype": "float32"}}, {"name": "conv_dw_10_bn/beta", "shape": [512], "dtype": "float32", "quantization": {"dtype": "uint8", "min": -4.015373754501343, "scale": 0.031126928329467774, "original_dtype": "float32"}}, {"name": "conv_dw_10_bn/moving_mean", "shape": [512], "dtype": "float32", "quantization": {"dtype": "uint8", "min": -21.299764296587774, "scale": 0.12241243848613664, "original_dtype": "float32"}}, {"name": "conv_dw_10_bn/moving_variance", "shape": [512], "dtype": "float32", "quantization": {"dtype": "uint8", "min": 7.006492321624085e-44, "scale": 0.24158171111462162, "original_dtype": "float32"}}, {"name": "conv_dw_11/depthwise_kernel", "shape": [3, 3, 512, 1], "dtype": "float32", "quantization": {"dtype": "uint8", "min": -4.079498122720157, "scale": 0.03708634657018325, "original_dtype": "float32"}}, {"name": "conv_dw_11_bn/gamma", "shape": [512], "dtype": "float32", "quantization": {"dtype": "uint8", "min": 0.3887553811073303, "scale": 0.00938934508491965, "original_dtype": "float32"}}, {"name": "conv_dw_11_bn/beta", "shape": [512], "dtype": "float32", "quantization": {"dtype": "uint8", "min": -3.022164108238968, "scale": 0.028244524376065124, "original_dtype": "float32"}}, {"name": "conv_dw_11_bn/moving_mean", "shape": [512], "dtype": "float32", "quantization": {"dtype": "uint8", "min": -13.712207569795495, "scale": 0.09141471713196997, "original_dtype": "float32"}}, {"name": "conv_dw_11_bn/moving_variance", "shape": [512], "dtype": "float32", "quantization": {"dtype": "uint8", "min": 0.26820528507232666, "scale": 0.2631968717949063, "original_dtype": "float32"}}, {"name": "conv_dw_1_bn/gamma", "shape": [32], "dtype": "float32", "quantization": {"dtype": "uint8", "min": 0.02729351632297039, "scale": 0.014757139257648412, "original_dtype": "float32"}}, {"name": "conv_dw_1_bn/beta", "shape": [32], "dtype": "float32", "quantization": {"dtype": "uint8", "min": -1.2444648555680817, "scale": 0.024889297111361633, "original_dtype": "float32"}}, {"name": "conv_dw_1_bn/moving_mean", "shape": [32], "dtype": "float32", "quantization": {"dtype": "uint8", "min": -19.409055822035842, "scale": 0.26957021975049783, "original_dtype": "float32"}}, {"name": "conv_dw_1_bn/moving_variance", "shape": [32], "dtype": "float32", "quantization": {"dtype": "uint8", "min": 7.006492321624085e-44, "scale": 1.8470310585171568, "original_dtype": "float32"}}, {"name": "conv_dw_2/depthwise_kernel", "shape": [3, 3, 64, 1], "dtype": "float32", "quantization": {"dtype": "uint8", "min": -6.270778556898529, "scale": 0.049376209109437234, "original_dtype": "float32"}}, {"name": "conv_dw_2_bn/gamma", "shape": [64], "dtype": "float32", "quantization": {"dtype": "uint8", "min": -0.054932212420538355, "scale": 0.010986442484107671, "original_dtype": "float32"}}, {"name": "conv_dw_2_bn/beta", "shape": [64], "dtype": "float32", "quantization": {"dtype": "uint8", "min": -2.3159989020403695, "scale": 0.02969229361590217, "original_dtype": "float32"}}, {"name": "conv_dw_2_bn/moving_mean", "shape": [64], "dtype": "float32", "quantization": {"dtype": "uint8", "min": -29.695560230928308, "scale": 0.27495889102711396, "original_dtype": "float32"}}, {"name": "conv_dw_2_bn/moving_variance", "shape": [64], "dtype": "float32", "quantization": {"dtype": "uint8", "min": 7.006492321624085e-44, "scale": 1.2504879222196692, "original_dtype": "float32"}}, {"name": "conv_dw_3/depthwise_kernel", "shape": [3, 3, 128, 1], "dtype": "float32", "quantization": {"dtype": "uint8", "min": -10.79224504583022, "scale": 0.09224141064812155, "original_dtype": "float32"}}, {"name": "conv_dw_3_bn/gamma", "shape": [128], "dtype": "float32", "quantization": {"dtype": "uint8", "min": 0.46314600110054016, "scale": 0.02619026490286285, "original_dtype": "float32"}}, {"name": "conv_dw_3_bn/beta", "shape": [128], "dtype": "float32", "quantization": {"dtype": "uint8", "min": -1.728314118759305, "scale": 0.028333018340316474, "original_dtype": "float32"}}, {"name": "conv_dw_3_bn/moving_mean", "shape": [128], "dtype": "float32", "quantization": {"dtype": "uint8", "min": -27.285034003912234, "scale": 0.1673928466497683, "original_dtype": "float32"}}, {"name": "conv_dw_3_bn/moving_variance", "shape": [128], "dtype": "float32", "quantization": {"dtype": "uint8", "min": 7.006492321624085e-44, "scale": 0.31685898724724265, "original_dtype": "float32"}}, {"name": "conv_dw_4/depthwise_kernel", "shape": [3, 3, 128, 1], "dtype": "float32", "quantization": {"dtype": "uint8", "min": -2.550120560328166, "scale": 0.02142958454057282, "original_dtype": "float32"}}, {"name": "conv_dw_4_bn/gamma", "shape": [128], "dtype": "float32", "quantization": {"dtype": "uint8", "min": 0.6114249229431152, "scale": 0.0066390720068239695, "original_dtype": "float32"}}, {"name": "conv_dw_4_bn/beta", "shape": [128], "dtype": "float32", "quantization": {"dtype": "uint8", "min": -1.9123446113923017, "scale": 0.027715139295540606, "original_dtype": "float32"}}, {"name": "conv_dw_4_bn/moving_mean", "shape": [128], "dtype": "float32", "quantization": {"dtype": "uint8", "min": -48.550162850174246, "scale": 0.32152425728592215, "original_dtype": "float32"}}, {"name": "conv_dw_4_bn/moving_variance", "shape": [128], "dtype": "float32", "quantization": {"dtype": "uint8", "min": 7.006492321624085e-44, "scale": 0.8774813184551165, "original_dtype": "float32"}}, {"name": "conv_dw_5/depthwise_kernel", "shape": [3, 3, 256, 1], "dtype": "float32", "quantization": {"dtype": "uint8", "min": -6.1929052184609805, "scale": 0.05480447095983169, "original_dtype": "float32"}}, {"name": "conv_dw_5_bn/gamma", "shape": [256], "dtype": "float32", "quantization": {"dtype": "uint8", "min": 0.46833595633506775, "scale": 0.008377752701441447, "original_dtype": "float32"}}, {"name": "conv_dw_5_bn/beta", "shape": [256], "dtype": "float32", "quantization": {"dtype": "uint8", "min": -2.478250166949104, "scale": 0.02337971855612362, "original_dtype": "float32"}}, {"name": "conv_dw_5_bn/moving_mean", "shape": [256], "dtype": "float32", "quantization": {"dtype": "uint8", "min": -19.53564438165403, "scale": 0.14688454422296263, "original_dtype": "float32"}}, {"name": "conv_dw_5_bn/moving_variance", "shape": [256], "dtype": "float32", "quantization": {"dtype": "uint8", "min": 0.04341820999979973, "scale": 0.21924595816754827, "original_dtype": "float32"}}, {"name": "conv_dw_6/depthwise_kernel", "shape": [3, 3, 256, 1], "dtype": "float32", "quantization": {"dtype": "uint8", "min": -2.1859793102040013, "scale": 0.01748783448163201, "original_dtype": "float32"}}, {"name": "conv_dw_6_bn/gamma", "shape": [256], "dtype": "float32", "quantization": {"dtype": "uint8", "min": 0.3831311762332916, "scale": 0.01628597238484551, "original_dtype": "float32"}}, {"name": "conv_dw_6_bn/beta", "shape": [256], "dtype": "float32", "quantization": {"dtype": "uint8", "min": -4.286299095901788, "scale": 0.035423959470262716, "original_dtype": "float32"}}, {"name": "conv_dw_6_bn/moving_mean", "shape": [256], "dtype": "float32", "quantization": {"dtype": "uint8", "min": -28.543384679158528, "scale": 0.19156634012858073, "original_dtype": "float32"}}, {"name": "conv_dw_6_bn/moving_variance", "shape": [256], "dtype": "float32", "quantization": {"dtype": "uint8", "min": 0.16387197375297546, "scale": 0.4546781045549056, "original_dtype": "float32"}}, {"name": "conv_dw_7/depthwise_kernel", "shape": [3, 3, 512, 1], "dtype": "float32", "quantization": {"dtype": "uint8", "min": -4.528119928696577, "scale": 0.039035516626694626, "original_dtype": "float32"}}, {"name": "conv_dw_7_bn/gamma", "shape": [512], "dtype": "float32", "quantization": {"dtype": "uint8", "min": 0.5135431885719299, "scale": 0.01012807990990433, "original_dtype": "float32"}}, {"name": "conv_dw_7_bn/beta", "shape": [512], "dtype": "float32", "quantization": {"dtype": "uint8", "min": -2.718313904369579, "scale": 0.025888703851138846, "original_dtype": "float32"}}, {"name": "conv_dw_7_bn/moving_mean", "shape": [512], "dtype": "float32", "quantization": {"dtype": "uint8", "min": -12.3123072904699, "scale": 0.09327505523083257, "original_dtype": "float32"}}, {"name": "conv_dw_7_bn/moving_variance", "shape": [512], "dtype": "float32", "quantization": {"dtype": "uint8", "min": 0.1372116506099701, "scale": 0.22580996927093058, "original_dtype": "float32"}}, {"name": "conv_dw_8/depthwise_kernel", "shape": [3, 3, 512, 1], "dtype": "float32", "quantization": {"dtype": "uint8", "min": -3.503010789085837, "scale": 0.03766678267834233, "original_dtype": "float32"}}, {"name": "conv_dw_8_bn/gamma", "shape": [512], "dtype": "float32", "quantization": {"dtype": "uint8", "min": 0.4619569182395935, "scale": 0.010635102262683943, "original_dtype": "float32"}}, {"name": "conv_dw_8_bn/beta", "shape": [512], "dtype": "float32", "quantization": {"dtype": "uint8", "min": -3.0047127863940073, "scale": 0.03301882182850557, "original_dtype": "float32"}}, {"name": "conv_dw_8_bn/moving_mean", "shape": [512], "dtype": "float32", "quantization": {"dtype": "uint8", "min": -13.461047557756013, "scale": 0.11604351342893114, "original_dtype": "float32"}}, {"name": "conv_dw_8_bn/moving_variance", "shape": [512], "dtype": "float32", "quantization": {"dtype": "uint8", "min": 0.2751120924949646, "scale": 0.19719007926828722, "original_dtype": "float32"}}, {"name": "conv_dw_9/depthwise_kernel", "shape": [3, 3, 512, 1], "dtype": "float32", "quantization": {"dtype": "uint8", "min": -3.9606458187103275, "scale": 0.035049962997436526, "original_dtype": "float32"}}, {"name": "conv_dw_9_bn/gamma", "shape": [512], "dtype": "float32", "quantization": {"dtype": "uint8", "min": 0.47258448600769043, "scale": 0.012061498679366766, "original_dtype": "float32"}}, {"name": "conv_dw_9_bn/beta", "shape": [512], "dtype": "float32", "quantization": {"dtype": "uint8", "min": -3.3449191673129213, "scale": 0.02675935333850337, "original_dtype": "float32"}}, {"name": "conv_dw_9_bn/moving_mean", "shape": [512], "dtype": "float32", "quantization": {"dtype": "uint8", "min": -13.31089339536779, "scale": 0.09179926479563993, "original_dtype": "float32"}}, {"name": "conv_dw_9_bn/moving_variance", "shape": [512], "dtype": "float32", "quantization": {"dtype": "uint8", "min": 7.006492321624085e-44, "scale": 0.18088865093156403, "original_dtype": "float32"}}, {"name": "conv_pw_1/kernel", "shape": [1, 1, 32, 64], "dtype": "float32", "quantization": {"dtype": "uint8", "min": -1.1562793296926162, "scale": 0.009400644956850538, "original_dtype": "float32"}}, {"name": "conv_pw_10/kernel", "shape": [1, 1, 512, 512], "dtype": "float32", "quantization": {"dtype": "uint8", "min": -0.44136885100719975, "scale": 0.005517110637589997, "original_dtype": "float32"}}, {"name": "conv_pw_10_bn/gamma", "shape": [512], "dtype": "float32", "quantization": {"dtype": "uint8", "min": 0.40737128257751465, "scale": 0.01111310323079427, "original_dtype": "float32"}}, {"name": "conv_pw_10_bn/beta", "shape": [512], "dtype": "float32", "quantization": {"dtype": "uint8", "min": -1.5898983618792366, "scale": 0.015141889160754634, "original_dtype": "float32"}}, {"name": "conv_pw_10_bn/moving_mean", "shape": [512], "dtype": "float32", "quantization": {"dtype": "uint8", "min": -5.68562910603542, "scale": 0.041500942379820584, "original_dtype": "float32"}}, {"name": "conv_pw_10_bn/moving_variance", "shape": [512], "dtype": "float32", "quantization": {"dtype": "uint8", "min": 0.6430038809776306, "scale": 0.012928528177971934, "original_dtype": "float32"}}, {"name": "conv_pw_11/kernel", "shape": [1, 1, 512, 512], "dtype": "float32", "quantization": {"dtype": "uint8", "min": -0.5775827113319846, "scale": 0.006638881739448098, "original_dtype": "float32"}}, {"name": "conv_pw_11_bn/gamma", "shape": [512], "dtype": "float32", "quantization": {"dtype": "uint8", "min": 0.25059831142425537, "scale": 0.008022769759683048, "original_dtype": "float32"}}, {"name": "conv_pw_11_bn/beta", "shape": [512], "dtype": "float32", "quantization": {"dtype": "uint8", "min": -2.21351318359375, "scale": 0.017159016927083333, "original_dtype": "float32"}}, {"name": "conv_pw_11_bn/moving_mean", "shape": [512], "dtype": "float32", "quantization": {"dtype": "uint8", "min": -6.054713361403521, "scale": 0.044849728602989046, "original_dtype": "float32"}}, {"name": "conv_pw_11_bn/moving_variance", "shape": [512], "dtype": "float32", "quantization": {"dtype": "uint8", "min": 0.5071747899055481, "scale": 0.030935147930594053, "original_dtype": "float32"}}, {"name": "conv_pw_1_bn/gamma", "shape": [64], "dtype": "float32", "quantization": {"dtype": "uint8", "min": 0.35251274704933167, "scale": 0.032491648781533336, "original_dtype": "float32"}}, {"name": "conv_pw_1_bn/beta", "shape": [64], "dtype": "float32", "quantization": {"dtype": "uint8", "min": -3.451037874408797, "scale": 0.027608302995270374, "original_dtype": "float32"}}, {"name": "conv_pw_1_bn/moving_mean", "shape": [64], "dtype": "float32", "quantization": {"dtype": "uint8", "min": -7.045163979249843, "scale": 0.06021507674572515, "original_dtype": "float32"}}, {"name": "conv_pw_1_bn/moving_variance", "shape": [64], "dtype": "float32", "quantization": {"dtype": "uint8", "min": 3.647693750188332e-26, "scale": 0.010321417976828182, "original_dtype": "float32"}}, {"name": "conv_pw_2/kernel", "shape": [1, 1, 64, 128], "dtype": "float32", "quantization": {"dtype": "uint8", "min": -0.8433065858541751, "scale": 0.007666423507765228, "original_dtype": "float32"}}, {"name": "conv_pw_2_bn/gamma", "shape": [128], "dtype": "float32", "quantization": {"dtype": "uint8", "min": -0.2565770342069513, "scale": 0.017105135613796757, "original_dtype": "float32"}}, {"name": "conv_pw_2_bn/beta", "shape": [128], "dtype": "float32", "quantization": {"dtype": "uint8", "min": -3.06571382447785, "scale": 0.02865153106988645, "original_dtype": "float32"}}, {"name": "conv_pw_2_bn/moving_mean", "shape": [128], "dtype": "float32", "quantization": {"dtype": "uint8", "min": -7.539099496953627, "scale": 0.06791981528787051, "original_dtype": "float32"}}, {"name": "conv_pw_2_bn/moving_variance", "shape": [128], "dtype": "float32", "quantization": {"dtype": "uint8", "min": 3.5983166041997364e-26, "scale": 0.020843148698993758, "original_dtype": "float32"}}, {"name": "conv_pw_3/kernel", "shape": [1, 1, 128, 128], "dtype": "float32", "quantization": {"dtype": "uint8", "min": -1.2198100524790148, "scale": 0.011190917912651512, "original_dtype": "float32"}}, {"name": "conv_pw_3_bn/gamma", "shape": [128], "dtype": "float32", "quantization": {"dtype": "uint8", "min": 0.18780168890953064, "scale": 0.015472448222777423, "original_dtype": "float32"}}, {"name": "conv_pw_3_bn/beta", "shape": [128], "dtype": "float32", "quantization": {"dtype": "uint8", "min": -3.4507078282973342, "scale": 0.03350201775045956, "original_dtype": "float32"}}, {"name": "conv_pw_3_bn/moving_mean", "shape": [128], "dtype": "float32", "quantization": {"dtype": "uint8", "min": -5.5036402870627015, "scale": 0.048277546377742994, "original_dtype": "float32"}}, {"name": "conv_pw_3_bn/moving_variance", "shape": [128], "dtype": "float32", "quantization": {"dtype": "uint8", "min": 3.397311214324068e-23, "scale": 0.014451724407719631, "original_dtype": "float32"}}, {"name": "conv_pw_4/kernel", "shape": [1, 1, 128, 256], "dtype": "float32", "quantization": {"dtype": "uint8", "min": -0.8342400251650343, "scale": 0.008600412630567364, "original_dtype": "float32"}}, {"name": "conv_pw_4_bn/gamma", "shape": [256], "dtype": "float32", "quantization": {"dtype": "uint8", "min": 0.35204944014549255, "scale": 0.010737718904719633, "original_dtype": "float32"}}, {"name": "conv_pw_4_bn/beta", "shape": [256], "dtype": "float32", "quantization": {"dtype": "uint8", "min": -2.754386138916016, "scale": 0.02314610200769761, "original_dtype": "float32"}}, {"name": "conv_pw_4_bn/moving_mean", "shape": [256], "dtype": "float32", "quantization": {"dtype": "uint8", "min": -4.6347761266371785, "scale": 0.04930612900677849, "original_dtype": "float32"}}, {"name": "conv_pw_4_bn/moving_variance", "shape": [256], "dtype": "float32", "quantization": {"dtype": "uint8", "min": 0.3834984600543976, "scale": 0.012346436813765882, "original_dtype": "float32"}}, {"name": "conv_pw_5/kernel", "shape": [1, 1, 256, 256], "dtype": "float32", "quantization": {"dtype": "uint8", "min": -0.8367139830308802, "scale": 0.0062441342017229865, "original_dtype": "float32"}}, {"name": "conv_pw_5_bn/gamma", "shape": [256], "dtype": "float32", "quantization": {"dtype": "uint8", "min": 0.32286036014556885, "scale": 0.010632535990546732, "original_dtype": "float32"}}, {"name": "conv_pw_5_bn/beta", "shape": [256], "dtype": "float32", "quantization": {"dtype": "uint8", "min": -2.3726761163449757, "scale": 0.022814193426393996, "original_dtype": "float32"}}, {"name": "conv_pw_5_bn/moving_mean", "shape": [256], "dtype": "float32", "quantization": {"dtype": "uint8", "min": -4.292183101878447, "scale": 0.03974243612850414, "original_dtype": "float32"}}, {"name": "conv_pw_5_bn/moving_variance", "shape": [256], "dtype": "float32", "quantization": {"dtype": "uint8", "min": 0.7304810881614685, "scale": 0.012431451619840135, "original_dtype": "float32"}}, {"name": "conv_pw_6/kernel", "shape": [1, 1, 256, 512], "dtype": "float32", "quantization": {"dtype": "uint8", "min": -0.5713789617314059, "scale": 0.004645357412450454, "original_dtype": "float32"}}, {"name": "conv_pw_6_bn/gamma", "shape": [512], "dtype": "float32", "quantization": {"dtype": "uint8", "min": 0.18331867456436157, "scale": 0.008538789141411875, "original_dtype": "float32"}}, {"name": "conv_pw_6_bn/beta", "shape": [512], "dtype": "float32", "quantization": {"dtype": "uint8", "min": -0.921360002078262, "scale": 0.012976901437722, "original_dtype": "float32"}}, {"name": "conv_pw_6_bn/moving_mean", "shape": [512], "dtype": "float32", "quantization": {"dtype": "uint8", "min": -5.201855760462144, "scale": 0.03562914904426126, "original_dtype": "float32"}}, {"name": "conv_pw_6_bn/moving_variance", "shape": [512], "dtype": "float32", "quantization": {"dtype": "uint8", "min": 0.5753074288368225, "scale": 0.012264443145078772, "original_dtype": "float32"}}, {"name": "conv_pw_7/kernel", "shape": [1, 1, 512, 512], "dtype": "float32", "quantization": {"dtype": "uint8", "min": -0.6420004676370059, "scale": 0.004863639906340954, "original_dtype": "float32"}}, {"name": "conv_pw_7_bn/gamma", "shape": [512], "dtype": "float32", "quantization": {"dtype": "uint8", "min": 0.3295741677284241, "scale": 0.0071738857848971495, "original_dtype": "float32"}}, {"name": "conv_pw_7_bn/beta", "shape": [512], "dtype": "float32", "quantization": {"dtype": "uint8", "min": -1.2398856667911304, "scale": 0.0142515593884038, "original_dtype": "float32"}}, {"name": "conv_pw_7_bn/moving_mean", "shape": [512], "dtype": "float32", "quantization": {"dtype": "uint8", "min": -5.2296223135555495, "scale": 0.04053970785701976, "original_dtype": "float32"}}, {"name": "conv_pw_7_bn/moving_variance", "shape": [512], "dtype": "float32", "quantization": {"dtype": "uint8", "min": 1.1034681797027588, "scale": 0.024923316170187556, "original_dtype": "float32"}}, {"name": "conv_pw_8/kernel", "shape": [1, 1, 512, 512], "dtype": "float32", "quantization": {"dtype": "uint8", "min": -0.5474137383348802, "scale": 0.0054199380033156455, "original_dtype": "float32"}}, {"name": "conv_pw_8_bn/gamma", "shape": [512], "dtype": "float32", "quantization": {"dtype": "uint8", "min": 0.19040143489837646, "scale": 0.007490061311160817, "original_dtype": "float32"}}, {"name": "conv_pw_8_bn/beta", "shape": [512], "dtype": "float32", "quantization": {"dtype": "uint8", "min": -2.645896552590763, "scale": 0.020044670852960324, "original_dtype": "float32"}}, {"name": "conv_pw_8_bn/moving_mean", "shape": [512], "dtype": "float32", "quantization": {"dtype": "uint8", "min": -4.066770441391888, "scale": 0.03388975367826574, "original_dtype": "float32"}}, {"name": "conv_pw_8_bn/moving_variance", "shape": [512], "dtype": "float32", "quantization": {"dtype": "uint8", "min": 1.425549012065823e-20, "scale": 0.015952360863779106, "original_dtype": "float32"}}, {"name": "conv_pw_9/kernel", "shape": [1, 1, 512, 512], "dtype": "float32", "quantization": {"dtype": "uint8", "min": -0.6948596673853257, "scale": 0.005649265588498583, "original_dtype": "float32"}}, {"name": "conv_pw_9_bn/gamma", "shape": [512], "dtype": "float32", "quantization": {"dtype": "uint8", "min": 0.15738044679164886, "scale": 0.012728047429346571, "original_dtype": "float32"}}, {"name": "conv_pw_9_bn/beta", "shape": [512], "dtype": "float32", "quantization": {"dtype": "uint8", "min": -2.206201338300518, "scale": 0.023223171982110716, "original_dtype": "float32"}}, {"name": "conv_pw_9_bn/moving_mean", "shape": [512], "dtype": "float32", "quantization": {"dtype": "uint8", "min": -3.504052388434317, "scale": 0.031009313171985103, "original_dtype": "float32"}}, {"name": "conv_pw_9_bn/moving_variance", "shape": [512], "dtype": "float32", "quantization": {"dtype": "uint8", "min": 4.3302698602870106e-16, "scale": 0.01564656425924862, "original_dtype": "float32"}}, {"name": "seg_feats/kernel", "shape": [3, 3, 128, 64], "dtype": "float32", "quantization": {"dtype": "uint8", "min": -0.20540045476427263, "scale": 0.0013082831513647939, "original_dtype": "float32"}}, {"name": "seg_feats/bias", "shape": [64], "dtype": "float32", "quantization": {"dtype": "uint8", "min": -0.0024925446649100265, "scale": 1.7553131443028356e-05, "original_dtype": "float32"}}]}]}